policies/12dof_stand_1.pt (torch, 487183 bytes, 12 tensors)

hidden_state f4 [1, 1, 128]
0	0x00000000	0.0
1	0x00000000	0.0
2	0x00000000	0.0
3	0x00000000	0.0
4	0x00000000	0.0
5	0x00000000	0.0
6	0x00000000	0.0
7	0x00000000	0.0
8	0x00000000	0.0
9	0x00000000	0.0
10	0x00000000	0.0
11	0x00000000	0.0
12	0x00000000	0.0
13	0x00000000	0.0
14	0x00000000	0.0
15	0x00000000	0.0
16	0x00000000	0.0
17	0x00000000	0.0
18	0x00000000	0.0
19	0x00000000	0.0
20	0x00000000	0.0
21	0x00000000	0.0
22	0x00000000	0.0
23	0x00000000	0.0
24	0x00000000	0.0
25	0x00000000	0.0
26	0x00000000	0.0
27	0x00000000	0.0
28	0x00000000	0.0
29	0x00000000	0.0
30	0x00000000	0.0
31	0x00000000	0.0
32	0x00000000	0.0
33	0x00000000	0.0
34	0x00000000	0.0
35	0x00000000	0.0
36	0x00000000	0.0
37	0x00000000	0.0
38	0x00000000	0.0
39	0x00000000	0.0
40	0x00000000	0.0
41	0x00000000	0.0
42	0x00000000	0.0
43	0x00000000	0.0
44	0x00000000	0.0
45	0x00000000	0.0
46	0x00000000	0.0
47	0x00000000	0.0
48	0x00000000	0.0
49	0x00000000	0.0
50	0x00000000	0.0
51	0x00000000	0.0
52	0x00000000	0.0
53	0x00000000	0.0
54	0x00000000	0.0
55	0x00000000	0.0
56	0x00000000	0.0
57	0x00000000	0.0
58	0x00000000	0.0
59	0x00000000	0.0
60	0x00000000	0.0
61	0x00000000	0.0
62	0x00000000	0.0
63	0x00000000	0.0
64	0x00000000	0.0
65	0x00000000	0.0
66	0x00000000	0.0
67	0x00000000	0.0
68	0x00000000	0.0
69	0x00000000	0.0
70	0x00000000	0.0
71	0x00000000	0.0
72	0x00000000	0.0
73	0x00000000	0.0
74	0x00000000	0.0
75	0x00000000	0.0
76	0x00000000	0.0
77	0x00000000	0.0
78	0x00000000	0.0
79	0x00000000	0.0
80	0x00000000	0.0
81	0x00000000	0.0
82	0x00000000	0.0
83	0x00000000	0.0
84	0x00000000	0.0
85	0x00000000	0.0
86	0x00000000	0.0
87	0x00000000	0.0
88	0x00000000	0.0
89	0x00000000	0.0
90	0x00000000	0.0
91	0x00000000	0.0
92	0x00000000	0.0
93	0x00000000	0.0
94	0x00000000	0.0
95	0x00000000	0.0
96	0x00000000	0.0
97	0x00000000	0.0
98	0x00000000	0.0
99	0x00000000	0.0
100	0x00000000	0.0
101	0x00000000	0.0
102	0x00000000	0.0
103	0x00000000	0.0
104	0x00000000	0.0
105	0x00000000	0.0
106	0x00000000	0.0
107	0x00000000	0.0
108	0x00000000	0.0
109	0x00000000	0.0
110	0x00000000	0.0
111	0x00000000	0.0
112	0x00000000	0.0
113	0x00000000	0.0
114	0x00000000	0.0
115	0x00000000	0.0
116	0x00000000	0.0
117	0x00000000	0.0
118	0x00000000	0.0
119	0x00000000	0.0
120	0x00000000	0.0
121	0x00000000	0.0
122	0x00000000	0.0
123	0x00000000	0.0
124	0x00000000	0.0
125	0x00000000	0.0
126	0x00000000	0.0
127	0x00000000	0.0

cell_state f4 [1, 1, 128]
0	0x00000000	0.0
1	0x00000000	0.0
2	0x00000000	0.0
3	0x00000000	0.0
4	0x00000000	0.0
5	0x00000000	0.0
6	0x00000000	0.0
7	0x00000000	0.0
8	0x00000000	0.0
9	0x00000000	0.0
10	0x00000000	0.0
11	0x00000000	0.0
12	0x00000000	0.0
13	0x00000000	0.0
14	0x00000000	0.0
15	0x00000000	0.0
16	0x00000000	0.0
17	0x00000000	0.0
18	0x00000000	0.0
19	0x00000000	0.0
20	0x00000000	0.0
21	0x00000000	0.0
22	0x00000000	0.0
23	0x00000000	0.0
24	0x00000000	0.0
25	0x00000000	0.0
26	0x00000000	0.0
27	0x00000000	0.0
28	0x00000000	0.0
29	0x00000000	0.0
30	0x00000000	0.0
31	0x00000000	0.0
32	0x00000000	0.0
33	0x00000000	0.0
34	0x00000000	0.0
35	0x00000000	0.0
36	0x00000000	0.0
37	0x00000000	0.0
38	0x00000000	0.0
39	0x00000000	0.0
40	0x00000000	0.0
41	0x00000000	0.0
42	0x00000000	0.0
43	0x00000000	0.0
44	0x00000000	0.0
45	0x00000000	0.0
46	0x00000000	0.0
47	0x00000000	0.0
48	0x00000000	0.0
49	0x00000000	0.0
50	0x00000000	0.0
51	0x00000000	0.0
52	0x00000000	0.0
53	0x00000000	0.0
54	0x00000000	0.0
55	0x00000000	0.0
56	0x00000000	0.0
57	0x00000000	0.0
58	0x00000000	0.0
59	0x00000000	0.0
60	0x00000000	0.0
61	0x00000000	0.0
62	0x00000000	0.0
63	0x00000000	0.0
64	0x00000000	0.0
65	0x00000000	0.0
66	0x00000000	0.0
67	0x00000000	0.0
68	0x00000000	0.0
69	0x00000000	0.0
70	0x00000000	0.0
71	0x00000000	0.0
72	0x00000000	0.0
73	0x00000000	0.0
74	0x00000000	0.0
75	0x00000000	0.0
76	0x00000000	0.0
77	0x00000000	0.0
78	0x00000000	0.0
79	0x00000000	0.0
80	0x00000000	0.0
81	0x00000000	0.0
82	0x00000000	0.0
83	0x00000000	0.0
84	0x00000000	0.0
85	0x00000000	0.0
86	0x00000000	0.0
87	0x00000000	0.0
88	0x00000000	0.0
89	0x00000000	0.0
90	0x00000000	0.0
91	0x00000000	0.0
92	0x00000000	0.0
93	0x00000000	0.0
94	0x00000000	0.0
95	0x00000000	0.0
96	0x00000000	0.0
97	0x00000000	0.0
98	0x00000000	0.0
99	0x00000000	0.0
100	0x00000000	0.0
101	0x00000000	0.0
102	0x00000000	0.0
103	0x00000000	0.0
104	0x00000000	0.0
105	0x00000000	0.0
106	0x00000000	0.0
107	0x00000000	0.0
108	0x00000000	0.0
109	0x00000000	0.0
110	0x00000000	0.0
111	0x00000000	0.0
112	0x00000000	0.0
113	0x00000000	0.0
114	0x00000000	0.0
115	0x00000000	0.0
116	0x00000000	0.0
117	0x00000000	0.0
118	0x00000000	0.0
119	0x00000000	0.0
120	0x00000000	0.0
121	0x00000000	0.0
122	0x00000000	0.0
123	0x00000000	0.0
124	0x00000000	0.0
125	0x00000000	0.0
126	0x00000000	0.0
127	0x00000000	0.0

weight f4 [128, 128]
0	0x3ebfe4bc	0.37479198
1	0xbd22dd48	-0.03976181
2	0x3e3b93b0	0.18318057
3	0x3d8ae416	0.06781785
4	0x3db49030	0.08816564
5	0xbe27fcdb	-0.1640505
6	0x3e109596	0.14119563
7	0x3e46f5f0	0.19429755
8	0xbe5381f0	-0.20655036
9	0xbd99b9a2	-0.0750611
10	0xbd84d44c	-0.06485805
11	0x3da1c824	0.07899502
12	0xbdc1bd68	-0.094599545
13	0x3e2a2e16	0.16619143
14	0xbdf3e570	-0.11908996
15	0x3d546165	0.051850695
16	0x3dca7532	0.098856345
17	0xbdfd0bf2	-0.12355794
18	0xbdc216b7	-0.09476989
19	0xbc73af8c	-0.014873397
20	0x3daf4e5a	0.08559866
21	0xbdb28c18	-0.08718127
22	0xbdb74c0e	-0.08950053
23	0xbe2f0e59	-0.17095317
24	0x3e21a99d	0.15787359
25	0xbdad3453	-0.08457246
26	0xbd03c6ea	-0.03217212
27	0x3e9a5a7b	0.30147156
28	0x3df3ec9a	0.119103625
29	0x39e228a3	0.00043136356
30	0xbdd55ff0	-0.10418689
31	0xbd3ce8af	-0.046120342
32	0xbe1fbb28	-0.15598738
33	0x3dc53086	0.09628396
34	0x3d9e110d	0.07718096
35	0xbd893e94	-0.06701389
36	0xbe8109c6	-0.2520277
37	0x3dc90f3f	0.09817361
38	0xbd237ce0	-0.039914012
39	0xbdd6c1f2	-0.10486211
40	0x3d7e6937	0.06211206
41	0x3e2cf92f	0.16891931
42	0x3df709e1	0.12062431
43	0x3ccc441f	0.024934826
44	0x3cc20553	0.02368418
45	0x3e247e13	0.16063718
46	0x3dba17e0	0.09086585
47	0x3cf60c8c	0.03003528
48	0x3ce185fd	0.02752971
49	0x3d791472	0.060810514
50	0xbdd831b1	-0.10556353
51	0x3e32c920	0.17459536
52	0xbd983640	-0.07432222
53	0x3cebb7a4	0.02877409
54	0xbd35d233	-0.044389915
55	0xbe4da8ff	-0.20083998
56	0x3d92833b	0.071539365
57	0xbe1acc75	-0.15117057
58	0xbcc2800d	-0.0237427
59	0x3c970a8a	0.018437643
60	0x3ea9ed9c	0.33189094
61	0xbe0b7a39	-0.13620843
62	0x3d1efa7f	0.03881311
63	0xbde4450d	-0.11145983
64	0x3daca9a2	0.084307924
65	0x3d8b48d8	0.06801003
66	0xbecb8f5c	-0.39757812
67	0x3e460f8c	0.19341868
68	0x3dff43e6	0.124641225
69	0x3dd6e87d	0.10493562
70	0x3db26992	0.08711542
71	0xbe53a7cd	-0.2066948
72	0xbe98daea	-0.29854518
73	0xbe377c5b	-0.17918532
74	0x3cc21b0f	0.023694543
75	0xbdcddf75	-0.10052387
76	0xbe529813	-0.20565824
77	0xbde96620	-0.11396432
78	0xbe6d1d5d	-0.23155732
79	0x3e562e93	0.20916204
80	0xbe09c495	-0.13453896
81	0x3b37af44	0.002802805
82	0xbd8ef6b0	-0.06980646
83	0xbd9ffb49	-0.07811601
84	0xbebcfcfe	-0.36911768
85	0x3e34ea15	0.1766742
86	0xbd818dee	-0.06325899
87	0x3e323eca	0.17406765
88	0x3c8ba3e0	0.017045915
89	0xbc74ab7e	-0.014933465
90	0xbed9c687	-0.42534277
91	0x3d562b06	0.052287124
92	0xbdc52ef1	-0.09628094
93	0xbe69a680	-0.22817421
94	0x3e501331	0.20319821
95	0x3db46155	0.08807627
96	0xbdfce7cb	-0.123488985
97	0xbe379e7b	-0.17931549
98	0xbd15f383	-0.036609184
99	0x3d02adb0	0.031903923
100	0xbe9ab15b	-0.30213436
101	0xbeb0d4ec	-0.34537446
102	0x3e46326a	0.19355169
103	0x3d9c2720	0.0762465
104	0xbc169341	-0.0091903815
105	0xbda6be4b	-0.08141764
106	0xbd751c4f	-0.05984145
107	0xbd5b0818	-0.053474516
108	0x3e84aa44	0.25911152
109	0x3deab52d	0.11460338
110	0x3cf6ae74	0.030112483
111	0x3d473de0	0.048642993
112	0x3decb56b	0.1155804
113	0xbe1be9f5	-0.15225966
114	0xbc2f68e7	-0.010706163
115	0xbe9655fe	-0.29362482
116	0x3debf0d1	0.115205415
117	0x3e4e44f1	0.20143487
118	0xbddd4deb	-0.10805877
119	0xbe075dba	-0.13219348
120	0xbd30538d	-0.04304843
121	0xbea61f6e	-0.32445854
122	0x3e6c1193	0.23053579
123	0x3d3b5251	0.0457328
124	0x3cc66f1a	0.0242229
125	0xbe55d956	-0.20883688
126	0x3df5eff0	0.12008655
127	0xbd0a172d	-0.03371351
128	0x3d02c617	0.031927194
129	0xbd5a7e01	-0.053342823
130	0xbe4d2ae2	-0.2003589
131	0xbdc34ca5	-0.09536103
132	0xbd554841	-0.05207086
133	0xbe8f27b3	-0.27959976
134	0x3da84b2f	0.08217465
135	0x3e004fe1	0.12530471
136	0x3dbc9938	0.09208912
137	0xbcb69744	-0.022288926
138	0xbddfe6a3	-0.10932662
139	0x3dc28982	0.09498884
140	0xbe05487c	-0.13015932
141	0xbde60d43	-0.11232998
142	0x3e251f12	0.16125134
143	0xbe030aaf	-0.12797044
144	0xbd7b705a	-0.061386444
145	0xbe204213	-0.15650205
146	0x3dd24f74	0.10269061
147	0xbdf016f2	-0.117231265
148	0xbea62b42	-0.32454878
149	0x3e0707de	0.13186595
150	0xbbfc2c87	-0.0076957378
151	0x3d370304	0.04468061
152	0x3e625116	0.22101244
153	0xbdf61e6e	-0.12017523
154	0xbb94e517	-0.004543911
155	0x3cd074e4	0.025446363
156	0xbe70cc0f	-0.23515342
157	0xbead7253	-0.33876285
158	0x3da32ce4	0.079675466
159	0x3da4dc98	0.080498874
160	0x3e1942ba	0.1496686
161	0x3d9ee784	0.07759002
162	0xbd339b5a	-0.043849327
163	0xbe84a2bf	-0.25905415
164	0xbd4005e7	-0.04688063
165	0xbc72b2e1	-0.014813156
166	0x3e238083	0.15966992
167	0x3e5d0b4e	0.21586344
168	0xbe51505e	-0.20440814
169	0xbdda0443	-0.10645344
170	0x3da147d7	0.078750305
171	0x3dba311b	0.090913974
172	0xbe100ca4	-0.14067322
173	0x3c0cc271	0.00859128
174	0x3e35953e	0.17732713
175	0x3dfa859e	0.12232517
176	0x3d3f4f0f	0.046706256
177	0x3e83e452	0.25760132
178	0x3e296070	0.16540694
179	0x3e774dfa	0.2415084
180	0x3d36d08a	0.044632472
181	0xbcd09ea8	-0.025466278
182	0xbe17a738	-0.14809883
183	0xbd95fc6b	-0.073235355
184	0xbd5163fc	-0.051120743
185	0xbce52491	-0.027971538
186	0x3d1dde4f	0.038542088
187	0x3e13fd89	0.14452185
188	0x3e950c2b	0.29110846
189	0xbe443920	-0.19162416
190	0xbe8059ec	-0.25068605
191	0xbd32f924	-0.04369463
192	0x3de43f94	0.11144939
193	0x3dce6bc9	0.10079152
194	0x3dfe8164	0.12427023
195	0x3e331395	0.17487939
196	0x3e094d00	0.1340828
197	0xbda3e62c	-0.08002886
198	0x3dded2e4	0.10880068
199	0xbd887ec7	-0.06664806
200	0x3e049646	0.1294795
201	0xbdbc4508	-0.09192854
202	0xbb0495e4	-0.0020230943
203	0x3d36aa33	0.04459591
204	0x3ea08d2f	0.31357715
205	0xbe0b4fd3	-0.1360467
206	0xbe2175a9	-0.1576754
207	0xbda27cfe	-0.079339966
208	0xbeba8128	-0.36426663
209	0x3db8b209	0.090183325
210	0xbd078784	-0.033088222
211	0xbe888aaf	-0.26668307
212	0x3ed2cf93	0.41173992
213	0xbd7c8ade	-0.06165587
214	0xbe4c2032	-0.19934157
215	0xbe506c49	-0.20353808
216	0x3e23a80b	0.15982072
217	0x3cf24481	0.02957368
218	0x3da7e352	0.08197655
219	0xbd23bf09	-0.039977107
220	0x3c8de3d9	0.01732056
221	0x3cad3e0d	0.021147752
222	0x3e4473b9	0.1918477
223	0xbd307ba0	-0.043086648
224	0x3e07b14b	0.13251226
225	0xbb18e045	-0.0023327034
226	0x3e0249f0	0.12723517
227	0xbb327f73	-0.002723661
228	0xbe089ac4	-0.13340288
229	0xbd4148a0	-0.0471884
230	0xbe09820b	-0.13428514
231	0x3d05e85a	0.03269229
232	0xbdb34d78	-0.0875501
233	0xbda49c79	-0.08037657
234	0xbe83cb0e	-0.25740856
235	0xbe225bbd	-0.15855308
236	0xbe377e01	-0.1791916
237	0x3de6badb	0.112661086
238	0x3cb17512	0.021662269
239	0xbdc92ce2	-0.09823014
240	0xbcd5fd31	-0.026121708
241	0x3ea68b4c	0.3252815
242	0x3dbb3e5e	0.09142755
243	0x3e1e161c	0.15438122
244	0x3e88ee85	0.26744476
245	0x3ea52070	0.3225131
246	0xbb40e924	-0.0029435838
247	0xbd8daf03	-0.069181465
248	0xbe91211d	-0.28345576
249	0x3c65b29b	0.014019634
250	0x3d777e63	0.060423266
251	0x3d920367	0.07129555
252	0xbd8a0576	-0.06739323
253	0xbcd65a33	-0.026166057
254	0xbe7f64c3	-0.24940781
255	0x3ec44b6a	0.38338786

bias f4 [128]
0	0xbd4dd49f	-0.0502516
1	0xbd26d246	-0.040727876
2	0x3a8091a9	0.0009809035
3	0x3e31435d	0.17310853
4	0xbe46444c	-0.1936199
5	0xbde2f635	-0.110821165
6	0xbdec7134	-0.11545029
7	0x3d64123b	0.05568145
8	0xbe14d10e	-0.14532873
9	0xbddb8fe4	-0.10720804
10	0xbd8d9c90	-0.069146276
11	0x3d8ba589	0.06818683
12	0xbd881e22	-0.066463724
13	0x3e060e1d	0.13091321
14	0xbdd38994	-0.10328975
15	0x3daf263c	0.085522145
16	0xbec7dfb4	-0.3903786
17	0x3d8f10c6	0.06985621
18	0xbdc8d805	-0.098068275
19	0xbe479899	-0.19491805
20	0xbe314abf	-0.1731367
21	0xbe6f03db	-0.23341314
22	0x3e496adf	0.19669674
23	0xbe19aa20	-0.15006304
24	0xbd697d5b	-0.057004314
25	0xbe8c64d8	-0.27420688
26	0xbdff6bc7	-0.12471729
27	0xbe20155a	-0.15633145
28	0xbe23af27	-0.15984784
29	0xbe8b069f	-0.2715349
30	0xbd7a4bd3	-0.061107468
31	0x3e192d94	0.14958793
32	0xbbe0a935	-0.0068561085
33	0x3ddb3647	0.10703712
34	0xbe4bccd2	-0.19902351
35	0xbd32a488	-0.04361394
36	0x3dafad4c	0.08577976
37	0x3e028c43	0.12748818
38	0xbe10cddb	-0.14141028
39	0xbbb42e67	-0.0054986957
40	0x3d53452e	0.051579647
41	0xbc843e46	-0.016142976
42	0xbe91347b	-0.28360352
43	0xbd9445a2	-0.07239844
44	0xbe3a79c3	-0.18210511
45	0xbe2ae216	-0.16687807
46	0xbdea809a	-0.1145031
47	0x3d07898d	0.033090163
48	0xbd90ad53	-0.07064309
49	0x3d2c8341	0.04211736
50	0xbcc6d4d3	-0.024271404
51	0xbe00d602	-0.12581638
52	0xbe06b70b	-0.13155763
53	0x3e22b20e	0.15888235
54	0x3e3c40cd	0.18384095
55	0x39ed94c3	0.00045315
56	0xbd9fc1d1	-0.078006394
57	0xbe28d153	-0.16486101
58	0x3e2f8a84	0.17142683
59	0xbdadcdfb	-0.08486553
60	0x3e2e2109	0.1700479
61	0x3cfb90dd	0.030708725
62	0xbe9c34a3	-0.3050891
63	0x3c84ec42	0.016225938
64	0x3d606559	0.054784153
65	0xbd00603f	-0.031341787
66	0xbd1d69b7	-0.038430896
67	0xbe0c0ffb	-0.13677971
68	0x3c5a0800	0.013307571
69	0x3e3e3825	0.18576105
70	0xbd8ca352	-0.068670884
71	0x3dd6888b	0.10475262
72	0x3e2153c2	0.15754607
73	0xbddfec2d	-0.10933719
74	0x3b155ae0	0.0022789761
75	0xbe5ce817	-0.2157291
76	0xbe3839c5	-0.17990787
77	0x3e125738	0.14291084
78	0x3d9a7692	0.07542147
79	0xbd74a0d0	-0.059723675
80	0x3d0fdc70	0.035122335
81	0x3ca5cbd5	0.020238796
82	0xbe222343	-0.15833764
83	0xbd320e27	-0.043470528
84	0x3d819537	0.063272886
85	0xbe1573b6	-0.14594921
86	0xbe1a9d36	-0.15099034
87	0x3d2518b9	0.04030678
88	0x3c07e837	0.00829511
89	0xbd178466	-0.0369915
90	0xbd9e989e	-0.07743953
91	0xbda5fd48	-0.0810495
92	0xbd86d7ad	-0.06584106
93	0xbd2e476e	-0.04254859
94	0xbc69ae1e	-0.014262704
95	0xbdf645e8	-0.12025052
96	0x3da0a59f	0.0784409
97	0x3a54f071	0.0008122987
98	0xbda50e05	-0.08059315
99	0xbd55cb19	-0.052195642
100	0xbe030e15	-0.1279834
101	0x3e16bf1a	0.14721337
102	0xbe1ce278	-0.15320766
103	0x3e3c5368	0.18391192
104	0x3cd8150b	0.026377222
105	0xbe35720d	-0.17719288
106	0xbda05100	-0.078279495
107	0xbe48c0d2	-0.19604805
108	0xbe6567b7	-0.22402845
109	0x3d24ebc2	0.0402639
110	0x3d1a3f8c	0.03765826
111	0x3d78f937	0.060784545
112	0x3d72fa9c	0.05932103
113	0xbe903c56	-0.28171033
114	0xbddc3ba5	-0.10753564
115	0x3d226c52	0.039654084
116	0x3e672013	0.22570829
117	0x3d825ea6	0.06365709
118	0x3ca521ad	0.02015766
119	0xbdc3c229	-0.095585175
120	0xbd9861c5	-0.07440523
121	0xbcaa19b3	-0.020764207
122	0xbe5730d2	-0.21014717
123	0xbdbf4086	-0.09338479
124	0x3cb733a4	0.022363491
125	0xbdfe66df	-0.12421965
126	0xbdaf911a	-0.08572598
127	0x3d05e5f2	0.032689996

weight f4 [64, 128]
0	0x3e1daad5	0.15397198
1	0xbdf68c85	-0.12038521
2	0x3dd329f6	0.10310738
3	0xbe132506	-0.14369592
4	0x3c9967fc	0.018726341
5	0xbb52894c	-0.0032125292
6	0xbe5b0787	-0.2138959
7	0xbcf6b39c	-0.030114941
8	0xbdd60f05	-0.104520835
9	0xbdec1cb7	-0.115289144
10	0x3ce9226c	0.028458796
11	0x3e0649cf	0.13114093
12	0x3e6ab05c	0.22918838
13	0x3df40bd4	0.119163185
14	0xbb7d3233	-0.0038634657
15	0x3e4cf21e	0.20014235
16	0xbd51c9c8	-0.051217824
17	0x3d8ba0ab	0.06817754
18	0x3da604a0	0.08106351
19	0xbd8de32e	-0.06928097
20	0x3e3a392b	0.1818587
21	0xbd64a575	-0.055821855
22	0x3ce5dd6c	0.028059684
23	0xbe499b1f	-0.1968808
24	0x3c2ca6b4	0.010537792
25	0xbdd7623d	-0.10516784
26	0x3e387bfb	0.18016045
27	0xbe7812e9	-0.24225964
28	0xbda12475	-0.07868282
29	0xbe48d3ef	-0.19612096
30	0xbd98996b	-0.07451137
31	0xbe371767	-0.17880021
32	0xbe121bfd	-0.14268489
33	0x3e7cdd8b	0.24693887
34	0xbd64af08	-0.055830985
35	0x3dc0b2c3	0.09409096
36	0xbdddd096	-0.108308
37	0x3de2bab1	0.11070765
38	0x3bcf25aa	0.0063216286
39	0x3e0115b4	0.12605935
40	0x3daff054	0.08590761
41	0x3b59e94e	0.0033250633
42	0x3de674b2	0.112527266
43	0xbc3451e4	-0.011005852
44	0xbd8382dd	-0.064214446
45	0x3df1ac4a	0.1180044
46	0xbe73262e	-0.23745033
47	0x3e608ee6	0.21929511
48	0x3dab828c	0.08374509
49	0x3dff96ee	0.124799594
50	0xbe2899ac	-0.16464871
51	0xbe593ad3	-0.21213846
52	0x3d2a1b80	0.041530132
53	0xbd7b1c8c	-0.06130652
54	0xbc31d896	-0.010854861
55	0x3e3f8a3d	0.18705077
56	0xbe419632	-0.18904951
57	0x3d02113e	0.031754725
58	0x3e1c716b	0.1527764
59	0x3daca164	0.0842922
60	0x3c4f5820	0.012655288
61	0xbd817ee1	-0.06323028
62	0xbcc8b087	-0.024498237
63	0xbca2c12a	-0.019867498
64	0xbd960654	-0.07325426
65	0xbcb762f0	-0.022386044
66	0x3e2a88ac	0.16653699
67	0xbd253b6b	-0.04033987
68	0xbe0c3031	-0.13690259
69	0x3da4bab3	0.080434225
70	0xbd35af5e	-0.044356696
71	0x3e488930	0.19583583
72	0x3db0f13e	0.08639763
73	0x3c79c697	0.015245101
74	0x3e31aa9e	0.17350242
75	0x3d92648d	0.07148085
76	0x3ce9ca02	0.028538708
77	0x3de413b0	0.111365676
78	0x3b61bc22	0.0034444411
79	0xbc59b360	-0.013287395
80	0x3e2a0f45	0.16607387
81	0x3df62deb	0.12020477
82	0xbd8e5d36	-0.06951372
83	0xbd3725cf	-0.04471379
84	0xb8909dac	-6.895824e-05
85	0x3db3f1ff	0.087863915
86	0xbdaf024a	-0.085453585
87	0xbe0e6443	-0.13905434
88	0xbe5d58c2	-0.2161589
89	0xbd485a16	-0.048914038
90	0xbe9ac6b7	-0.30229732
91	0x3e58e709	0.21181883
92	0xbe2124f7	-0.15736757
93	0xbe34892d	-0.17630453
94	0xbcd9e363	-0.026597684
95	0x3da33192	0.07968439
96	0xbcc6e450	-0.02427879
97	0xbcc5b985	-0.024136314
98	0x3e12061d	0.14260145
99	0xbd0ac9f9	-0.033884022
100	0xbc54fc8e	-0.012999667
101	0x3c2056c3	0.009786311
102	0x3db445e2	0.088023916
103	0x3e4c061a	0.19924203
104	0xbe130080	-0.1435566
105	0x3d5ea420	0.05435574
106	0xbe1250c4	-0.14288622
107	0xbd5f60ec	-0.05453579
108	0xbe78e0fa	-0.24304572
109	0x3dc1505e	0.09439157
110	0x3dac7569	0.08420832
111	0xbe2d5a66	-0.16929016
112	0xbbf5ae9e	-0.0074976226
113	0xbded2153	-0.11578622
114	0x3e0bb1bf	0.13642024
115	0xbdd9e587	-0.10639482
116	0xbe071375	-0.13191016
117	0x3d2859d9	0.04110131
118	0x3c9272c6	0.017876994
119	0x3e207f51	0.15673567
120	0xbdbca1ee	-0.09210573
121	0x3dc8be3f	0.098019116
122	0xbe377e83	-0.17919354
123	0xbc013c00	-0.00788784
124	0x3e300b0d	0.17191716
125	0xbda4141d	-0.08011649
126	0xbd870cad	-0.065942146
127	0x3e2bc09d	0.16772695
128	0xbeb01c71	-0.343967
129	0x3de8e903	0.113725685
130	0xbe2cc66d	-0.16872568
131	0x3e150126	0.1455122
132	0x3d821f95	0.0635368
133	0x3d13ccc8	0.036083966
134	0xbe8a4f96	-0.27013844
135	0x3da0c74a	0.07850511
136	0xbe606656	-0.21914038
137	0xbcbbdf47	-0.022933615
138	0xbdb790e8	-0.089631855
139	0x3e67bbf6	0.22630295
140	0x3e251ad7	0.1612352
141	0x3d78e0b4	0.06076117
142	0xbe9ddebb	-0.30833992
143	0x3dfcd08d	0.123444654
144	0xbd1ea51c	-0.03873168
145	0x3d0c15e6	0.03420057
146	0xbe069cfe	-0.13145825
147	0x3da42ff4	0.08016959
148	0xbe35dfdd	-0.17761178
149	0xbc4a54d4	-0.012349326
150	0x3e19e538	0.15028846
151	0xbcfd7eae	-0.030944195
152	0xbe195c52	-0.14976624
153	0xbd61f155	-0.055161793
154	0xbe3a8204	-0.1821366
155	0xbe170ed1	-0.14751746
156	0xbd362fce	-0.044479184
157	0x3cf961ff	0.030442236
158	0x3e9ff5f9	0.3124235
159	0x3e661f0c	0.22472781
160	0xbe06af48	-0.13152802
161	0x3d4d13a0	0.050067544
162	0xbc78f4a0	-0.015195042
163	0xbe3a3236	-0.18183216
164	0xbcb10953	-0.021610891
165	0x3ea4083b	0.3203753
166	0xbeb27b7e	-0.34859842
167	0xbdd7b0fd	-0.10531805
168	0xbe348d6d	-0.17632075
169	0x3cafeebe	0.021476146
170	0xbd4c56ff	-0.049887653
171	0xbe559651	-0.20858122
172	0xbe0527c2	-0.13003448
173	0xbe2dbfcb	-0.16967694
174	0x3d1dbe95	0.03851183
175	0xbec12a88	-0.3772776
176	0xbed39bac	-0.41329706
177	0x3e024a23	0.12723593
178	0x3e238283	0.15967755
179	0xbd42d8cf	-0.047570046
180	0xbea40cde	-0.32041067
181	0xbd3f0381	-0.0466342
182	0xbcb65ebf	-0.022261975
183	0xbe63d8bf	-0.22250651
184	0xbd8b3ba0	-0.06798482
185	0xbe934eef	-0.2877116
186	0x3e1ee617	0.1551746
187	0x3c7d8fbc	0.0154761635
188	0x3dddaca4	0.10823944
189	0x3e43f443	0.19136147
190	0xbe0a6cc1	-0.13518049
191	0x3ed58b78	0.4170797
192	0xbd1ecf6d	-0.038772035
193	0x3edcea59	0.43147543
194	0x39e7fa4c	0.0004424624
195	0x3e397a52	0.18113068
196	0x3eb1c927	0.3472378
197	0x3d1053c0	0.03523612
198	0xbecaf7d2	-0.39642197
199	0x3de82135	0.11334459
200	0x3e0663a5	0.13123949
201	0x3dd8da4e	0.10588513
202	0xbdd68952	-0.104754105
203	0xbd9424ec	-0.07233605
204	0x3d5e7e14	0.054319456
205	0x3e8e925c	0.27846038
206	0x3ca079f1	0.019589396
207	0xbdb5edeb	-0.0888327
208	0xbdfff222	-0.12497355
209	0xbbf7369e	-0.0075443527
210	0xbe6f91e1	-0.23395492
211	0xbd425f48	-0.04745415
212	0xbd8bc45b	-0.06824561
213	0xbd67fa10	-0.056634963
214	0x3df64e7a	0.12026687
215	0xbdc74360	-0.09729648
216	0x3d08f613	0.0334378
217	0xbd27fd74	-0.041013196
218	0x3af9e607	0.0019065746
219	0xbe6281ff	-0.22119902
220	0xbd180025	-0.037109513
221	0x3d87e973	0.06636324
222	0xbe2f7924	-0.17136055
223	0x3e443c8b	0.1916372
224	0x3e0a74dd	0.13521142
225	0xbe1b978d	-0.15194531
226	0x3e3e60bc	0.18591589
227	0xbd52dc0a	-0.051479377
228	0xbbb1a11d	-0.0054208175
229	0x3e234e0a	0.15947738
230	0xbde4bd03	-0.111688636
231	0x3de027e9	0.10945112
232	0xbdb75cd7	-0.08953255
233	0xbd4f5a46	-0.0506232
234	0xbcc55289	-0.024087207
235	0xbdb1a79d	-0.08674548
236	0x3d948bc4	0.07253221
237	0x3e1a4e68	0.15068972
238	0x3df2518c	0.1183196
239	0xbd4adefb	-0.049529057
240	0x3dd30630	0.103039145
241	0x3d1f5792	0.038901873
242	0xbe779ea5	-0.24181612
243	0xbd76bc24	-0.06023802
244	0x3d21a601	0.039464954
245	0x3c06c312	0.008225219
246	0x3dc21eed	0.09478555
247	0xbe1765c4	-0.14784914
248	0x3aa99511	0.0012938102
249	0xbe5e42c7	-0.21705161
250	0xbe704a69	-0.23465885
251	0x3db8dfb5	0.09027044
252	0xbeaabd6d	-0.33347645
253	0x3d018667	0.031622317
254	0xbd3ea718	-0.04654607
255	0xbe974500	-0.2954483

bias f4 [64]
0	0x3e99befc	0.30028522
1	0x3de77066	0.11300735
2	0xbeadf372	-0.33974797
3	0x3e847d05	0.25876632
4	0x3e19c657	0.15017067
5	0xbe3f40a4	-0.18677002
6	0x3c80a131	0.015701862
7	0x3e419104	0.18902975
8	0xbe516663	-0.20449214
9	0xbe40f99a	-0.18845215
10	0x3de0b650	0.10972273
11	0xbd30d1cc	-0.043168828
12	0xbcb27b43	-0.021787291
13	0xbda18b85	-0.07887939
14	0xbe86e1d9	-0.26344183
15	0x3e95872e	0.29204696
16	0x3e47aa95	0.19498666
17	0x3d924ea7	0.07143908
18	0xbdd9bdc1	-0.10631896
19	0xbeaf30d1	-0.3421693
20	0xbeaa21ae	-0.3322882
21	0x3ec956f8	0.39324164
22	0x3db2d2bb	0.087316
23	0x3b098ca3	0.0020988367
24	0xbd8affd5	-0.06787077
25	0xbcb7ad97	-0.022421641
26	0xbe1c1549	-0.15242495
27	0xbd9a3c78	-0.07531065
28	0xbea15a4d	-0.31514207
29	0xbe491f10	-0.19640756
30	0x3df234f3	0.118265055
31	0x3e8d7425	0.27627674
32	0x3caedb91	0.021344932
33	0x3df1b772	0.118025675
34	0xbe2826cf	-0.16421054
35	0xbe853699	-0.26018217
36	0xbd694f9b	-0.056960683
37	0x3df2f1f0	0.11862552
38	0x3cabbab8	0.020963058
39	0xbd5ba841	-0.053627256
40	0xbe482076	-0.19543633
41	0xbd69bf44	-0.05706717
42	0xbb89a88b	-0.004201
43	0xbe815d29	-0.25266388
44	0x3d881eb8	0.06646484
45	0x3c58cddb	0.0132326735
46	0xbe6f882d	-0.2339179
47	0xbcd67257	-0.026177568
48	0xbe9338e6	-0.28754348
49	0xbf132124	-0.57472444
50	0xbe670729	-0.22561325
51	0xbf07bd2a	-0.53023016
52	0xbd757dca	-0.059934415
53	0x3e818a85	0.25300995
54	0x3d61ff97	0.05517539
55	0xbe96375a	-0.29339105
56	0xbe9bd483	-0.3043557
57	0x3d24ff75	0.040282685
58	0xbe059a2c	-0.13047093
59	0x3e2b37fd	0.16720577
60	0x3de91f89	0.11382968
61	0xbe37f881	-0.1796589
62	0x3df864e1	0.12128616
63	0xbdebe35c	-0.11517975

weight f4 [12, 64]
0	0x3ddc1376	0.107458994
1	0x3e8c2477	0.2737157
2	0xbe9b6a43	-0.3035451
3	0xbd983626	-0.07432203
4	0xbe3d99d8	-0.18515718
5	0x3e1b8f69	0.15191425
6	0xbd56eaa2	-0.052469857
7	0x3d16cd13	0.036816668
8	0xbe446ba4	-0.19181687
9	0x3d6c36c1	0.057669405
10	0xbdfe8e31	-0.124294646
11	0x3de8e4f1	0.11371792
12	0x3ddd3a15	0.10802094
13	0x3dd1d118	0.102449596
14	0x3e14dfd6	0.14538512
15	0x3e2b188e	0.16708586
16	0x3d6bea25	0.057596345
17	0x3e564aea	0.20927015
18	0x3d465062	0.048416503
19	0xbcee0702	-0.029056076
20	0xbe10027d	-0.14063449
21	0xbd6f6b9d	-0.058452237
22	0xbdcb742f	-0.0993427
23	0x3dcaf914	0.09910789
24	0x3db62d74	0.08895388
25	0xbdcbdd83	-0.099543594
26	0x3d93897a	0.07203956
27	0x3e710054	0.23535281
28	0x3d470612	0.048589773
29	0x3d9aa2d7	0.075505905
30	0xbd9c53f4	-0.076332
31	0x3dad6fc8	0.08468586
32	0xbe030a3e	-0.12796876
33	0x3e52ce16	0.20586428
34	0x3dd5d9b3	0.104419135
35	0xbe7a8e39	-0.24468316
36	0x3cbe7f51	0.023254069
37	0x3e29fb6a	0.16599813
38	0x3e06bda3	0.13158278
39	0xbe065a1f	-0.13120316
40	0x3d895e37	0.06707423
41	0xbe04bd52	-0.12962845
42	0xbe3f65fd	-0.18691249
43	0x3ceddae6	0.029035043
44	0x3dfe5ff7	0.124206476
45	0x3e0c7942	0.13718131
46	0x3d322b2c	0.043498203
47	0xbe52e1ee	-0.20593998
48	0xbde7d981	-0.113207825
49	0xbd6a806a	-0.05725137
50	0xbd5cef65	-0.053939242
51	0x3d96249a	0.073312
52	0x3e9907fb	0.298889
53	0xbc8ca127	-0.017166687
54	0xbe531504	-0.20613486
55	0x3e11a3cd	0.14222641
56	0xbca38ac5	-0.019963631
57	0x3bf946b2	0.0076073045
58	0xbe7305cb	-0.23732679
59	0xbd3273bc	-0.043567404
60	0x3e11e67c	0.14248079
61	0xbd7bef42	-0.06150747
62	0xbd5537b9	-0.052055094
63	0xbd667863	-0.056267153
64	0x3e7a3186	0.24432954
65	0x3b20ec17	0.0024554783
66	0x3cd49f37	0.025954826
67	0xbd83b9b6	-0.06431906
68	0x3e32ab5c	0.17448181
69	0xbe818343	-0.25295457
70	0x3c2a8efc	0.010410067
71	0x3e460614	0.19338256
72	0xbd37f93d	-0.044915427
73	0xbd7912d3	-0.060808968
74	0x3c9b1839	0.018932449
75	0xbe017b72	-0.12644747
76	0x3bb1453b	0.0054098642
77	0xbe1f88be	-0.15579507
78	0xbe877091	-0.2645307
79	0x3e3c5d7b	0.18395035
80	0x3df73097	0.12069815
81	0x3db12dde	0.086513266
82	0xbd50c4b4	-0.05096884
83	0xbe91bd24	-0.28464615
84	0xbe3a6e69	-0.1820618
85	0x3d319da8	0.043363243
86	0x3d48b33f	0.048999067
87	0x3c1e7c77	0.009673229
88	0xbdda3cbb	-0.10656115
89	0x3c05444c	0.008133959
90	0x3deecea9	0.11660511
91	0xbdf56076	-0.11981289
92	0xbe67dbd5	-0.22642453
93	0xbe736994	-0.23770744
94	0x3e2eef10	0.17083383
95	0x3da68e7e	0.08132647
96	0x3db32624	0.08747509
97	0xbde3d800	-0.11125183
98	0x3e72d414	0.23713714
99	0xbd0046f8	-0.03131768
100	0x3e3705e6	0.17873344
101	0xbe047edc	-0.12939018
102	0xbe4add12	-0.19810894
103	0x3bcf9619	0.0063350317
104	0x3d814bf1	0.06313313
105	0x3d9f7bc3	0.077872775
106	0x3d04b462	0.03239859
107	0xbe7c95e5	-0.24666555
108	0x3cac285b	0.021015337
109	0xbe0065c7	-0.12538825
110	0xbd0664e9	-0.03281108
111	0xbece2d74	-0.40269053
112	0xbeca7235	-0.39540258
113	0xbd5b82c9	-0.053591523
114	0xbe2f3b14	-0.1711238
115	0xbded1079	-0.115754075
116	0xbd04348b	-0.03227667
117	0x3e0c0f58	0.13677728
118	0x3e2f78d1	0.17135932
119	0xbe2cb2f9	-0.16865148
120	0xbd2e00d6	-0.042481266
121	0x3eaa50e7	0.3326485
122	0xbd511c0c	-0.05105214
123	0x3e8278ca	0.2548278
124	0x3e998e51	0.2999139
125	0x3e0db5b4	0.13838845
126	0x3de1327d	0.10995958
127	0x3e45143a	0.19245997
128	0xbe2c7a41	-0.16843511
129	0xbe43810e	-0.19092199
130	0x3d200bf0	0.039073884
131	0xbe07f016	-0.1327518
132	0xbd50ca7f	-0.050974365
133	0xbd545899	-0.051842306
134	0xbe180694	-0.1484626
135	0xbdd9dcaa	-0.106377915
136	0x3e47d221	0.19513752
137	0x3e013180	0.12616539
138	0xbdcd355e	-0.100199446
139	0xbcae9e7d	-0.021315807
140	0xbd2f4e3e	-0.042799227
141	0x3df126d7	0.11774986
142	0x3dbc2032	0.09185828
143	0xbe2fcf2c	-0.17168874
144	0xbd46f7f8	-0.048576325
145	0xbd727034	-0.059189036
146	0x3de3c107	0.111208014
147	0x3e13fdaa	0.14452234
148	0x3d7a4066	0.06109657
149	0xbd155fc9	-0.0364683
150	0x3d6b486e	0.05744212
151	0xbd35cc90	-0.04438454
152	0x3e024467	0.12721406
153	0x3d74c486	0.05975773
154	0xbe2ffbf4	-0.17185956
155	0x3db8cb44	0.09023145
156	0x3d2dc777	0.042426553
157	0x3ce9835e	0.028505024
158	0xbce3b0ec	-0.027794324
159	0xbd8f8ebf	-0.070096485
160	0xbd63ee8b	-0.055647414
161	0x3d250f2c	0.040297672
162	0x3e06f1e9	0.13178219
163	0x3ca47845	0.02007688
164	0x3b058a01	0.0020376446
165	0xbe01cee1	-0.12676574
166	0x3b8de1e0	0.004329905
167	0x3d78ca67	0.0607399
168	0x3e68c174	0.22730047
169	0xbe557d96	-0.20848688
170	0xbca8b831	-0.020595642
171	0x3e3842bb	0.17994206
172	0xbd93d9b5	-0.07219259
173	0xbc81d67e	-0.015849348
174	0x3e351cb1	0.17686726
175	0x3dacebbc	0.084434
176	0x3de46bd5	0.1115338
177	0x3e7ea341	0.24866964
178	0x3d8236f8	0.06358141
179	0x3e418543	0.18898492
180	0xbe168caa	-0.14702097
181	0xba8769d2	-0.001033122
182	0xbd870b5e	-0.06593965
183	0x3ddd43ed	0.108039714
184	0x3e6a6b87	0.22892581
185	0xbc74024f	-0.014893129
186	0xbd88b1e0	-0.06674552
187	0xbe68afd6	-0.22723326
188	0x3c6f764a	0.014615605
189	0xbdda482a	-0.106582955
190	0xbdc534fc	-0.096292466
191	0xbc5a297c	-0.013315555
192	0x3dea2126	0.11432104
193	0xbd452d76	-0.048139058
194	0x3d323cea	0.043515123
195	0xbe6892fd	-0.22712322
196	0xbe0da00a	-0.13830581
197	0x3e12fbb2	0.14353827
198	0x3dc7d86c	0.09758076
199	0x3c5e503f	0.013568937
200	0xbe6fb8e2	-0.23410371
201	0xbbd4324c	-0.0064757224
202	0xbd56deab	-0.052458446
203	0x3ea532e8	0.322654
204	0x3e9a63bb	0.30154213
205	0x3e095562	0.13411477
206	0x3b912135	0.0044290074
207	0xbe7f2740	-0.24917316
208	0x3d073fd6	0.033019863
209	0xbe642fdd	-0.22283883
210	0x3c828b13	0.015935456
211	0x3e3cc064	0.18432766
212	0x3d818957	0.063250236
213	0xbe718dea	-0.23589292
214	0xbee2e051	-0.44311765
215	0x3df4bd12	0.11950125
216	0x3e63192f	0.22177576
217	0xbd8c1c4d	-0.068413354
218	0x3cc31520	0.023813784
219	0x3e3420fc	0.17590708
220	0xbdb3165e	-0.087445006
221	0x3d918ed9	0.07107324
222	0x3de2f07f	0.11081027
223	0xbe63cb7e	-0.22245595
224	0xbd55dc3f	-0.052211996
225	0xbdbf686e	-0.0934609
226	0x3e29dc18	0.16587865
227	0x3d679c18	0.056545347
228	0xbe0af440	-0.13569736
229	0x3da4dbc1	0.08049727
230	0xbe47693a	-0.19473734
231	0x3d8f8a1e	0.07008766
232	0xbe76c2ef	-0.24097799
233	0xba5d12f5	-0.0008433306
234	0xbe13df53	-0.1444066
235	0xbda1966c	-0.07890019
236	0x3e04736a	0.12934652
237	0x3dba66c7	0.091016345
238	0x3e7fc915	0.2497905
239	0x3c8fab05	0.017537603
240	0x3d3c1373	0.045916986
241	0x3e32a88a	0.17447105
242	0xbc5c95a9	-0.013463416
243	0x3d832bb0	0.06404817
244	0x3d14b9aa	0.036309876
245	0xbc7e2187	-0.015510923
246	0xbdcac83b	-0.09901472
247	0xbeb543c8	-0.35403275
248	0x3e5e70e7	0.21722756
249	0xbd795537	-0.060872283
250	0x3c62eafe	0.013849972
251	0x3d35aa7d	0.044352043
252	0x3e48ce72	0.19610003
253	0x3e262b82	0.16227534
254	0xbcc09664	-0.023509212
255	0x3d84e41d	0.06488822

bias f4 [12]
0	0xbbb1733f	-0.0054153497
1	0x3e955782	0.29168326
2	0xbe92cb12	-0.28670555
3	0x3d42f771	0.04759926
4	0x3e63ed1f	0.22258423
5	0x3eb0ea91	0.3455396
6	0x3d7a91f8	0.061174363
7	0xbee67469	-0.4501069
8	0xbbbc8afd	-0.0057538734
9	0xbb6e435a	-0.0036356063
10	0xbe46e041	-0.19421484
11	0xbe65102c	-0.2236945

weight_ih_l0 f4 [512, 47]
0	0xbe8abfe2	-0.2709952
1	0xbe16a109	-0.14709868
2	0xbe930c45	-0.28720298
3	0xbeb2300d	-0.34802285
4	0x3e4c891d	0.1997418
5	0xbe68c343	-0.22730736
6	0x3c734a46	0.014849251
7	0xbc99340d	-0.018701578
8	0x3e6652cf	0.22492526
9	0xbf43a8c5	-0.76429397
10	0x3e3d75ee	0.18502018
11	0x3d80298a	0.06257923
12	0xbf10b15b	-0.5652062
13	0xbcd30d76	-0.025763255
14	0x3d81f556	0.06345622
15	0xbfa8a20c	-1.3174453
16	0x3e789453	0.24275331
17	0xbe19a89c	-0.15005726
18	0xbeb60197	-0.35548088
19	0xbc8c5ef5	-0.017135123
20	0x3dd25f55	0.102720894
21	0xbec5c114	-0.3862387
22	0xbe842299	-0.25807646
23	0xbc792b72	-0.015208112
24	0xbe4c29d5	-0.19937833
25	0x3e3dc174	0.18530828
26	0x3e4bf634	0.19918138
27	0xbf2ab5d5	-0.66683704
28	0x3eac29f7	0.33625767
29	0xbdac8d62	-0.08425404
30	0xbde6c30f	-0.11267673
31	0x3e77f0ac	0.24212903
32	0x3c818db7	0.015814645
33	0x3dbbc4e6	0.09168415
34	0xbe335079	-0.17511167
35	0x3c0f8fff	0.008762359
36	0x3d8953c9	0.06705434
37	0xbd15eecf	-0.0366047
38	0x3dc47eeb	0.0959452
39	0xbbe75ce9	-0.0070606363
40	0x3d2eac70	0.042644918
41	0x3d310ffe	0.043228142
42	0xbc56687a	-0.013086433
43	0xbe555f53	-0.20837145
44	0x3d8dcf70	0.06924331
45	0x3e5a3883	0.2131062
46	0x3d825c4c	0.063652605
47	0xbea4e6be	-0.32207292
48	0xbe832b78	-0.25619102
49	0x3d97a435	0.07404367
50	0xbf458ef3	-0.7717125
51	0x3ea90a7f	0.3301582
52	0x3ea692a7	0.32533762
53	0x3d0fd351	0.035113636
54	0x3d315a36	0.043298922
55	0xbcb9da3e	-0.022687074
56	0x3e57aad4	0.2106126
57	0x3dec7271	0.115452655
58	0x3eecc5bf	0.46244618
59	0xbef3474a	-0.47515327
60	0x3e467d0f	0.19383644
61	0xbee22101	-0.44165805
62	0x3eccedc7	0.4002516
63	0x3eeeb319	0.46621016
64	0xbe6a602c	-0.22888249
65	0xbea3aea1	-0.3196917
66	0x3e932227	0.28736994
67	0x3d4ee9a9	0.050515804
68	0xbc7f7798	-0.015592478
69	0x3ecebb86	0.40377444
70	0x3dcbb2e3	0.09946229
71	0xbe6661bd	-0.22498222
72	0xbe8603da	-0.26174814
73	0x3db395c6	0.087688014
74	0x3d37137b	0.044696312
75	0x3e049c0d	0.12950154
76	0xbc992744	-0.018695481
77	0xbd8a4c28	-0.06752807
78	0x3df583f8	0.11988062
79	0xbc6912de	-0.01422569
80	0xbe1aa334	-0.1510132
81	0x3e96b2f7	0.29433414
82	0xbd88a65d	-0.06672356
83	0xbe117e81	-0.14208414
84	0xbd5291f7	-0.051408734
85	0xbe82dd2b	-0.25559363
86	0x3d050399	0.032474134
87	0xbc836d38	-0.01604329
88	0x3e277637	0.16353689
89	0xbe86e498	-0.26346278
90	0x3e66eec8	0.22552025
91	0x3d03e863	0.032204043
92	0xbe7147b8	-0.23562515
93	0x3e5c6c1b	0.21525614
94	0xbe2e04de	-0.16994044
95	0x3eae2991	0.34016088
96	0x3cde9bd7	0.02717392
97	0x3ed7ecff	0.42173
98	0xbab60b2d	-0.0013888829
99	0xbe13e7a7	-0.14443837
100	0xbcdae05b	-0.02671831
101	0x3bb622f9	0.0055583683
102	0x3e42bb01	0.19016649
103	0xbeabc87b	-0.33551392
104	0x3e5ee4e4	0.21767002
105	0xbe200804	-0.15628058
106	0x3d61c180	0.055116177
107	0x3c8cadab	0.017172655
108	0xbde50ed4	-0.11184469
109	0xbde34f58	-0.11099118
110	0xbea5966d	-0.32341328
111	0xbd81847d	-0.06324098
112	0xbeb1f9fd	-0.34761038
113	0x3cf567ca	0.029956717
114	0x3ce01a2b	0.027356228
115	0x3bf5f038	0.007505443
116	0xbe498338	-0.19678962
117	0xbdf2139e	-0.11820148
118	0x3ee71aba	0.45137578
119	0x3df5410b	0.119752966
120	0x3df7aba3	0.12093284
121	0x3e9dcdb3	0.30821
122	0xbdc2b293	-0.095067166
123	0x3df40b28	0.119161904
124	0xbca7c9b7	-0.020481927
125	0x3bcb78a9	0.006209452
126	0xbecbdb8b	-0.39815935
127	0x3f11f21b	0.5701005
128	0xbe7ad413	-0.24494962
129	0x3cecfc30	0.028928846
130	0x3ec1fb38	0.37886977
131	0xbd04aaf3	-0.032389592
132	0xbd9d967d	-0.07694719
133	0xbed4fd62	-0.41599566
134	0xbd14d261	-0.036333445
135	0xbdc25dce	-0.09490548
136	0xbef206a4	-0.4727069
137	0x3d129239	0.03578398
138	0x3db4a3d5	0.08820311
139	0x3deb1ecd	0.11480484
140	0x3eae6ab8	0.34065795
141	0xbdb54276	-0.08850567
142	0xbe07be71	-0.13256241
143	0x3db9ef8d	0.09078894
144	0xbe877f20	-0.26464176
145	0xbd41d7b2	-0.047324844
146	0x3ed97654	0.4247309
147	0xbd7d21e2	-0.06179989
148	0xbd2b0bc6	-0.041759275
149	0xbc8614f4	-0.016367413
150	0x3e950505	0.29105392
151	0x3e253566	0.16133651
152	0xbd89dcdf	-0.06731581
153	0xbe907231	-0.2821212
154	0xbd9e4dfa	-0.077297166
155	0xbe8f4277	-0.27980396
156	0x3edb00fe	0.42774194
157	0x3e8c1229	0.27357605
158	0xbe3cd217	-0.18439518
159	0xbf076f82	-0.5290452
160	0x3ec62a13	0.38703975
161	0xbe78a77a	-0.24282637
162	0xbe94bcfb	-0.2905043
163	0x3c127a41	0.00894028
164	0xbe636684	-0.22207075
165	0xbd3c1186	-0.04591515
166	0xbe1b420f	-0.15161918
167	0x3e66b777	0.22530924
168	0xbdc9da18	-0.09856051
169	0x3e8abe05	0.27098098
170	0x3e6f4568	0.2336632
171	0x3e2299a9	0.15878929
172	0x3cf03211	0.029320749
173	0x3d3df48b	0.046375792
174	0x3e269da5	0.16271074
175	0x3e2d5068	0.16925204
176	0xbd9218d2	-0.0713364
177	0xbd568f95	-0.052383024
178	0xbe9a299b	-0.30109867
179	0xbd0c038e	-0.034183078
180	0x3dd3c8fc	0.10341069
181	0x3e275685	0.16341598
182	0x3df09b7d	0.11748407
183	0x3e50035d	0.20313783
184	0x3e314fc8	0.1731559
185	0xbe1be28d	-0.15223141
186	0xbec3187b	-0.38104615
187	0xbde57cb6	-0.11205427
188	0xbb32df77	-0.002729384
189	0x3eed6cca	0.46372062
190	0x3bb97641	0.005659849
191	0x3ed7e91e	0.42170042
192	0x3e801140	0.2501316
193	0x3cca7fe2	0.024719182
194	0xbd7f0bee	-0.062267236
195	0xbd989cbe	-0.07451771
196	0xbd8828fe	-0.06648444
197	0x3f1c14ef	0.6096944
198	0xbd680dc6	-0.05665376
199	0xbe4a1d7f	-0.19737814
200	0xbe9e8c0a	-0.30966216
201	0xbe04e488	-0.12977803
202	0xbca164d7	-0.019701404
203	0x3ecef6a4	0.40422547
204	0xbe484130	-0.19556117
205	0xbedaea88	-0.42757058
206	0x3e0af8cb	0.1357147
207	0x3d02262d	0.03177469
208	0x3e478d61	0.19487526
209	0x3ebf7836	0.373964
210	0x3d8a7f25	0.06762532
211	0x3d29125e	0.041277282
212	0x3da8923b	0.08231016
213	0xbe97b0be	-0.2962703
214	0x3da614ca	0.08109434
215	0x3d99c16c	0.075075954
216	0x3e35fa35	0.17771228
217	0xbe4caf6f	-0.19988798
218	0x3e0b7f05	0.13622673
219	0xbc21f547	-0.009885139
220	0x3d0512a3	0.032488476
221	0x3d9e7f6f	0.0773915
222	0x3d94c228	0.07263595
223	0xbdd64ecf	-0.1046425
224	0x3d2837e3	0.041068923
225	0x3d916181	0.070986755
226	0xbcd4b8b1	-0.025966974
227	0x3d57a118	0.052643865
228	0x3e0a64a8	0.1351496
229	0xbdee4b70	-0.11635482
230	0x3e0e9529	0.13924088
231	0x3d9fc97a	0.078021005
232	0x3b59324c	0.0033141552
233	0xbdabb252	-0.08383621
234	0xbcabf294	-0.020989694
235	0xbe17c6dc	-0.14821953
236	0x3d896be7	0.06710034
237	0x3e167d86	0.14696321
238	0xbf6429b6	-0.89126146
239	0x3ee3e483	0.44510278
240	0x3d3081f8	0.043092698
241	0x3c8d184c	0.0172235
242	0x3d826417	0.06366747
243	0x3dd9dfe4	0.10638407
244	0xbe8e327b	-0.2777289
245	0xbed4fa7b	-0.4159735
246	0x3e88fb95	0.26754442
247	0xbef1751b	-0.47159657
248	0xbea333e8	-0.3187554
249	0x3dda2f3b	0.1065354
250	0xbd190076	-0.037353955
251	0x3ee4c8b8	0.44684386
252	0xbebb35e1	-0.36564544
253	0xbe5ffd56	-0.21873984
254	0x3c01185e	0.007879345
255	0x3e6306ec	0.22170609

weight_hh_l0 f4 [512, 128]
0	0xbb1bd5a2	-0.0023778458
1	0xbd18b9b5	-0.03728648
2	0xbe76f682	-0.24117473
3	0xbd9ced9d	-0.07662509
4	0x3f2374b4	0.6384995
5	0xbf21f750	-0.63267994
6	0xbdaa9ef0	-0.08331096
7	0xbea1dbab	-0.31612906
8	0x3bf8de56	0.007594864
9	0x3e381da4	0.17980057
10	0x3e4d8e0f	0.20073722
11	0x3e8bdd43	0.27317247
12	0x3c3089a5	0.0107750045
13	0xbf2a255b	-0.6646325
14	0x3e090712	0.13381603
15	0xbf381ef3	-0.71922225
16	0xbe50648e	-0.20350859
17	0x3e8aaf32	0.27086788
18	0xbec9b5d4	-0.39396536
19	0xbf2c3737	-0.6727175
20	0xbd807f38	-0.06274265
21	0x3ea8d078	0.3297155
22	0xbef3027f	-0.47462842
23	0xbddb4be9	-0.10707838
24	0x3d075914	0.033043936
25	0x3af65616	0.0018793966
26	0xbeafa494	-0.3430525
27	0xbddf56f5	-0.109052576
28	0xbf4ae71c	-0.79258895
29	0x3da81db8	0.082087934
30	0x3e138910	0.14407754
31	0x3dd6dab3	0.10490932
32	0xbbfa40dd	-0.007637127
33	0x3e8392b7	0.25697872
34	0xbe0d8d8c	-0.13823527
35	0x3ccdd1db	0.025124481
36	0x3e9c0aed	0.30477086
37	0xbd516189	-0.051118407
38	0xbebdbf38	-0.3705995
39	0x3e5b3689	0.21407522
40	0xbe1059d2	-0.14096764
41	0x3d183f2d	0.037169624
42	0xbf8b6e7d	-1.0893093
43	0xbe6baae0	-0.23014402
44	0xbe3400bf	-0.1757841
45	0x3c229aa5	0.009924565
46	0x3d951f76	0.07281391
47	0x3da6e405	0.0814896
48	0xbef725f2	-0.48271137
49	0x3f03abc7	0.51433986
50	0xbecf5c10	-0.40499926
51	0xbe1eee28	-0.15520537
52	0x3e8e05aa	0.27738696
53	0x3f3bd8e7	0.7337784
54	0xbe40988f	-0.18808196
55	0xbf347c4b	-0.70502156
56	0xbdcceea3	-0.10006454
57	0xbdb4651a	-0.08808346
58	0xbeab5d09	-0.33469418
59	0x3e09fc9a	0.13475266
60	0xbe9d674b	-0.3074287
61	0xbedb0efd	-0.42784873
62	0xbedb22cf	-0.42799994
63	0xbdeb5b95	-0.11492077
64	0xbe49d6c3	-0.19710831
65	0xbe3d5caa	-0.1849238
66	0x3dee1b88	0.11626345
67	0x3e4fa3b1	0.20277287
68	0x3e3daf04	0.18523794
69	0xbdc0b809	-0.09410102
70	0xbeecd6fb	-0.46257767
71	0xbf06300f	-0.5241708
72	0x3e5b6259	0.21424235
73	0xbdb80002	-0.089843765
74	0x3ec88b49	0.39168766
75	0x3e5292a0	0.20563745
76	0x3f2770ba	0.6540638
77	0xbe9d97a3	-0.30779752
78	0xbef33ef8	-0.4750898
79	0xbdfe1576	-0.12406437
80	0x3e109629	0.14119782
81	0x3ebb1088	0.3653605
82	0xbe2bb5be	-0.16768548
83	0xbe80abdc	-0.25131118
84	0x3e9d8cb5	0.30771413
85	0x3e61900f	0.2202761
86	0x3d80bb2a	0.06285699
87	0xbed3e68d	-0.41386834
88	0xbeadd13f	-0.33948705
89	0x3eb50237	0.35353252
90	0x3f154feb	0.5832507
91	0xbebeba07	-0.37251303
92	0x3ddc099a	0.10744019
93	0x3f09556e	0.5364598
94	0x3e009055	0.12555058
95	0x3d954421	0.07288385
96	0x3e6afcc7	0.2294799
97	0x3f05ec86	0.5231403
98	0xbd1ab103	-0.037766468
99	0x3e0d5f8b	0.13805978
100	0xbe59ec29	-0.21281494
101	0xbd4518b7	-0.048119273
102	0x3ed2b0b5	0.41150442
103	0xbe893d80	-0.26804733
104	0x3ab6e489	0.0013953607
105	0xbe22bc23	-0.15892081
106	0x3f1d7d1a	0.61519015
107	0x3ebe0174	0.37110484
108	0xbe2653dd	-0.16242929
109	0x3cac3be4	0.021024652
110	0x3ee85e84	0.4538461
111	0xbded38f4	-0.115831286
112	0x3d714ed3	0.058913063
113	0x3eb2539c	0.34829414
114	0x3e80333a	0.25039083
115	0x3e134757	0.14382683
116	0xbefa3482	-0.48868185
117	0x3e65b1a8	0.22431052
118	0xbdc31cf6	-0.09527008
119	0xbdf0a8f8	-0.11750978
120	0x3f17e696	0.5933622
121	0xbebba4ec	-0.36649263
122	0xbee00f07	-0.43761465
123	0x3e75275b	0.23940794
124	0xbe5cf045	-0.2157603
125	0x3dbf2aa7	0.09334307
126	0xbf3e028b	-0.7422263
127	0xbe432c5d	-0.19059892
128	0x3e0fe31b	0.14051478
129	0xbd902709	-0.07038695
130	0xbe3caac3	-0.18424515
131	0xbe2f635b	-0.17127745
132	0xbdb40c52	-0.087914124
133	0x3dfbfee7	0.12304478
134	0x3f3ba75e	0.7330226
135	0x3e3e4ce1	0.18584014
136	0x3dd88ff8	0.10574335
137	0x3ec77985	0.389599
138	0xbec6b621	-0.38810828
139	0x3c7faed6	0.015605649
140	0x3e086599	0.13320006
141	0x3dda917a	0.10672279
142	0xbea923c2	-0.33035094
143	0x3ec1e45f	0.37869546
144	0xbd72f89f	-0.059319135
145	0xbdb5e46d	-0.088814594
146	0xbea463aa	-0.32107288
147	0xbd9d24f6	-0.07673065
148	0x3e88a560	0.2668867
149	0xbecb48c1	-0.39703944
150	0x3d178492	0.036991663
151	0x3e9ad026	0.3023693
152	0xbf09f1f2	-0.53884804
153	0x3e814b64	0.2525283
154	0x3f0ddc55	0.55414325
155	0xbf101146	-0.5627636
156	0x3ef45ba5	0.4772617
157	0x3e388f81	0.18023492
158	0xbf3149c4	-0.6925318
159	0x3e3a0af7	0.18168245
160	0x3ea21e9f	0.31663987
161	0x3dfca5d9	0.123363204
162	0xbf020bc6	-0.50799215
163	0xbd645bc1	-0.055751566
164	0x3e4ed750	0.20199323
165	0x3d63d4a8	0.055622727
166	0x3eb8bc29	0.36081055
167	0xbe21ffc2	-0.1582022
168	0x3f005446	0.5012859
169	0xbdabed40	-0.08394861
170	0xbeef5dcb	-0.46751246
171	0xbeaf324e	-0.34218067
172	0xbd3bb841	-0.045830015
173	0xbd90c7de	-0.07069372
174	0x3e2d0d3a	0.16899577
175	0x3e6c773b	0.23092358
176	0xbc082b3d	-0.00831109
177	0xbe76db04	-0.24106985
178	0x3e2c4ab0	0.16825366
179	0xbe221f7c	-0.15832323
180	0x3e94fc16	0.29098576
181	0xbd29d414	-0.04146202
182	0xbe46b860	-0.19406271
183	0xbe5f0d4d	-0.21782418
184	0x3e07109b	0.13189928
185	0xbe4d66dd	-0.2005877
186	0x3ae439b4	0.0017412216
187	0xbdb3bf20	-0.087766886
188	0x3d9a8608	0.07545096
189	0x3ea09fec	0.3137201
190	0xbe34443e	-0.17604157
191	0xbe588190	-0.21143174
192	0x3f1eea9e	0.6207675
193	0x3d6d0716	0.057868086
194	0x3eb5dd5f	0.35520455
195	0xbe87a37a	-0.2649191
196	0x3f0c3d86	0.5478138
197	0x3ea9cf33	0.33165893
198	0x3ee8e169	0.45484474
199	0xbe5e9dfc	-0.21739954
200	0xbd3ceaf8	-0.04612252
201	0x3e429e69	0.19005741
202	0x3f0e77cf	0.55651563
203	0x3e1857e4	0.14877278
204	0xbed7ec2e	-0.42172378
205	0xbe608b60	-0.21928167
206	0x3f310ef4	0.6916344
207	0xbe66501c	-0.22491497
208	0x3f0554f8	0.5208278
209	0xbd7ced80	-0.061749935
210	0x3c87e03f	0.016586421
211	0x3db082d2	0.08618702
212	0xbf3383c6	-0.70122945
213	0x3e547e1e	0.20751235
214	0xbe4c6119	-0.19958915
215	0x3dac89e3	0.08424737
216	0x3eed91af	0.4640021
217	0xbf1927f7	-0.59826607
218	0x3e7775a8	0.24165976
219	0xbea327e8	-0.31866384
220	0xbe973f5f	-0.29540536
221	0xbe900040	-0.2812519
222	0xbe5d48e3	-0.21609835
223	0x3af6c940	0.0018828288
224	0x3b5734e4	0.0032837922
225	0xbf44aacb	-0.7682311
226	0x3e457bd3	0.19285516
227	0xbed10438	-0.4082353
228	0xbed4e04f	-0.41577384
229	0xbcbc9a8d	-0.023022914
230	0xbf1c4355	-0.6104024
231	0x3e9a6d3d	0.30161467
232	0x3ef90d74	0.48643076
233	0x3e97814d	0.29590836
234	0x3e0b52b4	0.13605767
235	0x3e0135d1	0.12618186
236	0x3d728144	0.05920531
237	0x3ee3e86e	0.44513267
238	0xbdad316b	-0.08456691
239	0x3e770b3e	0.24125382
240	0x3eb4ca80	0.35310745
241	0xbe24406b	-0.16040199
242	0x3e909cc7	0.28244612
243	0x3f00f19b	0.5036866
244	0x3e23f6d2	0.16012123
245	0x3d5a5637	0.053304877
246	0x3ef8a6e5	0.4856483
247	0x3ea33798	0.31878352
248	0xbed421d6	-0.41432065
249	0x3d2ae79f	0.041724797
250	0xbde737dd	-0.11289952
251	0x3f1ebc55	0.6200612
252	0x3e89e225	0.26930347
253	0xbe056159	-0.13025416
254	0x3e895e25	0.2682964
255	0x3e8e52a1	0.27797416
