policies/12dof_stand_2.pt (torch, 487183 bytes, 12 tensors)

hidden_state f4 [1, 1, 128]
0.0 0.0 0.0 0.0 0.0 0.0 0.0 0.0
0.0 0.0 0.0 0.0 0.0 0.0 0.0 0.0
0.0 0.0 0.0 0.0 0.0 0.0 0.0 0.0
0.0 0.0 0.0 0.0 0.0 0.0 0.0 0.0
0.0 0.0 0.0 0.0 0.0 0.0 0.0 0.0
0.0 0.0 0.0 0.0 0.0 0.0 0.0 0.0
0.0 0.0 0.0 0.0 0.0 0.0 0.0 0.0
0.0 0.0 0.0 0.0 0.0 0.0 0.0 0.0
0.0 0.0 0.0 0.0 0.0 0.0 0.0 0.0
0.0 0.0 0.0 0.0 0.0 0.0 0.0 0.0
0.0 0.0 0.0 0.0 0.0 0.0 0.0 0.0
0.0 0.0 0.0 0.0 0.0 0.0 0.0 0.0
0.0 0.0 0.0 0.0 0.0 0.0 0.0 0.0
0.0 0.0 0.0 0.0 0.0 0.0 0.0 0.0
0.0 0.0 0.0 0.0 0.0 0.0 0.0 0.0
0.0 0.0 0.0 0.0 0.0 0.0 0.0 0.0
00000000: 0000 0000 0000 0000 0000 0000 0000 0000
00000010: 0000 0000 0000 0000 0000 0000 0000 0000
00000020: 0000 0000 0000 0000 0000 0000 0000 0000
00000030: 0000 0000 0000 0000 0000 0000 0000 0000
00000040: 0000 0000 0000 0000 0000 0000 0000 0000
00000050: 0000 0000 0000 0000 0000 0000 0000 0000
00000060: 0000 0000 0000 0000 0000 0000 0000 0000
00000070: 0000 0000 0000 0000 0000 0000 0000 0000
00000080: 0000 0000 0000 0000 0000 0000 0000 0000
00000090: 0000 0000 0000 0000 0000 0000 0000 0000
000000a0: 0000 0000 0000 0000 0000 0000 0000 0000
000000b0: 0000 0000 0000 0000 0000 0000 0000 0000
000000c0: 0000 0000 0000 0000 0000 0000 0000 0000
000000d0: 0000 0000 0000 0000 0000 0000 0000 0000
000000e0: 0000 0000 0000 0000 0000 0000 0000 0000
000000f0: 0000 0000 0000 0000 0000 0000 0000 0000
00000100: 0000 0000 0000 0000 0000 0000 0000 0000
00000110: 0000 0000 0000 0000 0000 0000 0000 0000
00000120: 0000 0000 0000 0000 0000 0000 0000 0000
00000130: 0000 0000 0000 0000 0000 0000 0000 0000
00000140: 0000 0000 0000 0000 0000 0000 0000 0000
00000150: 0000 0000 0000 0000 0000 0000 0000 0000
00000160: 0000 0000 0000 0000 0000 0000 0000 0000
00000170: 0000 0000 0000 0000 0000 0000 0000 0000
00000180: 0000 0000 0000 0000 0000 0000 0000 0000
00000190: 0000 0000 0000 0000 0000 0000 0000 0000
000001a0: 0000 0000 0000 0000 0000 0000 0000 0000
000001b0: 0000 0000 0000 0000 0000 0000 0000 0000
000001c0: 0000 0000 0000 0000 0000 0000 0000 0000
000001d0: 0000 0000 0000 0000 0000 0000 0000 0000
000001e0: 0000 0000 0000 0000 0000 0000 0000 0000
000001f0: 0000 0000 0000 0000 0000 0000 0000 0000

cell_state f4 [1, 1, 128]
0.0 0.0 0.0 0.0 0.0 0.0 0.0 0.0
0.0 0.0 0.0 0.0 0.0 0.0 0.0 0.0
0.0 0.0 0.0 0.0 0.0 0.0 0.0 0.0
0.0 0.0 0.0 0.0 0.0 0.0 0.0 0.0
0.0 0.0 0.0 0.0 0.0 0.0 0.0 0.0
0.0 0.0 0.0 0.0 0.0 0.0 0.0 0.0
0.0 0.0 0.0 0.0 0.0 0.0 0.0 0.0
0.0 0.0 0.0 0.0 0.0 0.0 0.0 0.0
0.0 0.0 0.0 0.0 0.0 0.0 0.0 0.0
0.0 0.0 0.0 0.0 0.0 0.0 0.0 0.0
0.0 0.0 0.0 0.0 0.0 0.0 0.0 0.0
0.0 0.0 0.0 0.0 0.0 0.0 0.0 0.0
0.0 0.0 0.0 0.0 0.0 0.0 0.0 0.0
0.0 0.0 0.0 0.0 0.0 0.0 0.0 0.0
0.0 0.0 0.0 0.0 0.0 0.0 0.0 0.0
0.0 0.0 0.0 0.0 0.0 0.0 0.0 0.0
00000000: 0000 0000 0000 0000 0000 0000 0000 0000
00000010: 0000 0000 0000 0000 0000 0000 0000 0000
00000020: 0000 0000 0000 0000 0000 0000 0000 0000
00000030: 0000 0000 0000 0000 0000 0000 0000 0000
00000040: 0000 0000 0000 0000 0000 0000 0000 0000
00000050: 0000 0000 0000 0000 0000 0000 0000 0000
00000060: 0000 0000 0000 0000 0000 0000 0000 0000
00000070: 0000 0000 0000 0000 0000 0000 0000 0000
00000080: 0000 0000 0000 0000 0000 0000 0000 0000
00000090: 0000 0000 0000 0000 0000 0000 0000 0000
000000a0: 0000 0000 0000 0000 0000 0000 0000 0000
000000b0: 0000 0000 0000 0000 0000 0000 0000 0000
000000c0: 0000 0000 0000 0000 0000 0000 0000 0000
000000d0: 0000 0000 0000 0000 0000 0000 0000 0000
000000e0: 0000 0000 0000 0000 0000 0000 0000 0000
000000f0: 0000 0000 0000 0000 0000 0000 0000 0000
00000100: 0000 0000 0000 0000 0000 0000 0000 0000
00000110: 0000 0000 0000 0000 0000 0000 0000 0000
00000120: 0000 0000 0000 0000 0000 0000 0000 0000
00000130: 0000 0000 0000 0000 0000 0000 0000 0000
00000140: 0000 0000 0000 0000 0000 0000 0000 0000
00000150: 0000 0000 0000 0000 0000 0000 0000 0000
00000160: 0000 0000 0000 0000 0000 0000 0000 0000
00000170: 0000 0000 0000 0000 0000 0000 0000 0000
00000180: 0000 0000 0000 0000 0000 0000 0000 0000
00000190: 0000 0000 0000 0000 0000 0000 0000 0000
000001a0: 0000 0000 0000 0000 0000 0000 0000 0000
000001b0: 0000 0000 0000 0000 0000 0000 0000 0000
000001c0: 0000 0000 0000 0000 0000 0000 0000 0000
000001d0: 0000 0000 0000 0000 0000 0000 0000 0000
000001e0: 0000 0000 0000 0000 0000 0000 0000 0000
000001f0: 0000 0000 0000 0000 0000 0000 0000 0000

weight f4 [128, 128]
-0.03322014 0.025206098 0.009237494 0.04043105 0.20519465 0.050105974 -0.09826082 0.12705988
-0.074070126 -0.002509321 -0.09821409 0.080146864 0.10300306 0.066758625 -0.12751038 -0.09380308
-0.029289028 0.09219957 -0.08227586 -0.011018012 0.07508194 -0.10321451 -0.16181375 0.22390097
0.05269941 -0.003256957 0.070424125 0.0022136434 -0.1346734 0.13475189 0.14113866 0.123052046
-0.17165144 -0.19088078 -0.01751596 -0.022304026 0.05356885 0.1419165 0.10635006 0.11282579
0.09003135 0.11877128 -0.079532795 -0.03304485 0.14208168 -0.12447681 -0.10800458 -0.06133266
-0.044316143 -0.09846055 -0.17231594 0.1099532 0.05474638 0.19322325 0.24392898 -0.049673434
-0.010046332 -0.051047035 -0.029851485 -0.037673797 -0.111089066 0.08446419 -0.0010358231 -0.20170027
0.093812235 0.033690926 0.30427152 0.13826028 -0.023484042 0.12268028 -0.068664044 0.011376204
-0.0915232 0.018187368 -0.049337983 0.16265886 -0.08779895 -0.0678544 -0.10142703 -0.0068789516
-0.15408887 0.2679403 -0.1116355 5.1300085e-05 -0.20450795 0.041104082 -0.12674877 -0.044606514
-0.03340599 0.044834133 0.16833149 -0.12003025 -0.11696234 -0.30316076 -0.09014291 -0.0239966
-0.0985609 -0.028455608 -0.032653984 -0.0032275345 -0.15702334 -0.11077003 0.03380128 -0.045847367
0.016950913 0.05177185 -0.15056072 0.047048002 -0.1320954 -0.024192408 -0.0069369026 -0.052604545
-0.17144142 -0.04464376 0.18892832 -0.114180654 0.035651106 -0.10887426 -0.13312592 -0.058754623
-0.038364723 -0.05889594 -0.07318942 -0.00017892935 -0.078829065 0.016499903 -0.021597812 -0.0011210999
0.0037363372 -0.06741978 0.09528721 -0.02938928 0.029836532 -0.03641564 -0.007501544 0.063897744
-0.024635402 -0.18689123 0.0984713 -0.036470097 -0.08737369 0.06299124 0.051806476 -0.18794996
-0.005153687 0.039591003 0.061711602 -0.10399118 0.09517704 0.089472026 0.0183045 -0.016129296
-0.00411858 -0.031109624 0.19188853 0.15333314 -0.061653793 -0.10550201 0.010445888 0.17597221
0.11345727 0.0019070202 -0.112262465 -0.15731204 -0.15357317 -0.096143484 0.23255517 -0.04855669
-0.21556818 -0.049073655 0.046696465 0.08324429 -0.041087106 0.097632065 0.18818064 0.14195438
0.084828146 -0.27807778 0.019910669 0.12594357 0.040226523 -0.0050788987 -0.08607968 0.027100032
0.010057144 -0.1583615 0.09846472 -0.13176654 0.099055864 -0.037968546 -0.02907847 0.2579232
-0.050078657 0.03741724 -0.25715947 -0.17783001 -0.045976304 0.17069665 -0.038969498 -0.15509449
-0.07293944 -0.045783654 -0.029975254 -0.34820518 -0.15595885 -0.026699971 0.021609837 -0.13436462
-0.015846096 -0.26704305 -0.015888214 0.06990024 -0.019488705 -0.21455035 -0.1580505 0.069842055
0.013323473 -0.17576128 0.031556487 0.019326223 0.011480683 -0.01096203 0.34414685 0.23936354
-0.100422524 0.03370833 -0.005989762 0.0013748783 0.0754884 -0.07484175 -0.18184675 0.004373869
0.054152027 -0.10194034 -0.011831202 -0.25622025 -0.12003101 -0.049399074 0.06982644 0.18609765
0.1889602 -0.1002448 -0.049408462 -0.0254653 0.061365597 0.13315822 -0.028383482 0.06279234
-0.02451639 -0.1383726 -0.13347061 -0.038936988 -0.1244054 0.11548818 0.118279964 0.03733659
00000000: d711 08bd 057d ce3c dc58 173c 079b 253d
00000010: 8c1e 523e ec3b 4d3d f83c c9bd fc1b 023e
00000020: 14b2 97bd 6c73 24bb 7824 c9bd 0a24 a43d
00000030: 45f3 d23d bfb8 883d 1592 02be d41b c0bd
00000040: 8bef efbc 21d3 bc3d 3f80 a8bd e484 34bc
00000050: 8fc4 993d 2162 d3bd 81b2 25be 4c46 653e
00000060: 56db 573d ac72 55bb 863a 903d c612 113b
00000070: d3e7 09be 66fc 093e a786 103e b602 fc3d
00000080: 65c5 2fbe 4076 43be a17d 8fbc efb6 b6bc
00000090: 036b 5b3d 8f52 113e 0fce d93d 3511 e73d
000000a0: 5b62 b83d 5b3e f33d 17e2 a2bd 095a 07bd
000000b0: dc7d 113e b3ed febd 8131 ddbd f537 7bbd
000000c0: d884 35bd afa5 c9bd 9773 30be 252f e13d
000000d0: bd3d 603d 51dc 453e 85c8 793e 5f76 4bbd
000000e0: 5f99 24bc b216 51bd 1a8b f4bc d74f 1abd
000000f0: aa82 e3bd 90fb ac3d 75c4 87ba 848a 4ebe
00000100: a120 c03d 7fff 093d 7ac9 9b3e 1a94 0d3e
00000110: 9b61 c0bc cc3f fb3d bc9f 8cbd 4263 3a3c
00000120: 8470 bbbd adfd 943c a016 4abd 0b90 263e
00000130: f0cf b3bd 3ff7 8abd fab8 cfbd d468 e1bb
00000140: 79c9 1dbe 792f 893e 27a1 e4bd 0c2b 5738
00000150: 886a 51be c15c 283d 6eca 01be 52b5 36bd
00000160: b8d4 08bd ffa3 373d 175f 2c3e 6bd2 f5bd
00000170: f489 efbd e337 9bbe d99c b8bd 8594 c4bc
00000180: 4cda c9bd bc1b e9bc 2fc0 05bd 0b85 53bb
00000190: baca 20be 66db e2bd 3673 0a3d 73ca 3bbd
000001a0: a4dc 8a3c b80e 543d 972c 1abe 68b5 403d
000001b0: 0444 07be 282f c6bc f54e e3bb dd77 57bd
000001c0: 578e 2fbe 60dc 36bd 6d76 413e 8cd7 e9bd
000001d0: e506 123d 78f9 debd 2952 08be b0a8 70bd
000001e0: 5424 1dbd df3c 71bd 56e4 95bd fb9e 3bb9
000001f0: 2271 a1bd ce2a 873c e5ed b0bc dff1 92ba
00000200: 56dd 743b 6213 8abd f125 c33d cac1 f0bc
00000210: be6b f43c 9128 15bd 83cf f5bb d2dc 823d
00000220: 2fd0 c9bc 6a60 3fbe 52ab c93d ab61 15bd
00000230: faf0 b2bd 8d01 813d 0733 543d f475 40be
00000240: 43e0 a8bb 2d2a 223d 4ec5 7c3d 54f9 d4bd
00000250: 2eec c23d 1c3d b73d 52f3 953c 9621 84bc
00000260: 27f5 86bb 9cd9 febc 6d7e 443e 5d03 1d3e
00000270: b088 7cbd 7011 d8bd 3b25 2b3c 0f32 343e
00000280: 495c e83d fbf4 f93a dde9 e5bd 6816 21be
00000290: 4942 1dbe e0e6 c4bd f122 6e3e 61e3 46bd
000002a0: e8bd 5cbe 7501 49bd cb44 3f3d fb7b aa3d
000002b0: f44a 28bd 52f3 c73d 6db2 403e 7d5c 113e
000002c0: 61ba ad3d 3660 8ebe b31b a33c 5af7 003e
000002d0: 91c4 243d e46c a6bb 8b4a b0bd e300 de3c
000002e0: b8c6 243c 8429 22be dfa7 c93d cfed 06be
000002f0: cddd ca3d e884 1bbd f935 eebc 820e 843e
00000300: 471f 4dbd d242 193d 68aa 83be 1219 36be
00000310: a651 3cbd 1acb 2e3e 7b9e 1fbd 17d1 1ebe
00000320: 4661 95bd a487 3bbd aa8e f5bc f347 b2be
00000330: adb3 1fbe e6b9 dabc 1d07 b13c e196 09be
00000340: accf 81bc deb9 88be 0028 82bc db27 8f3d
00000350: c7a6 9fbc 16b3 5bbe fed7 21be 5a09 8f3d
00000360: b24a 5a3c c4fa 33be 6041 013d 0752 9e3c
00000370: 7a19 3c3c 169a 33bc 0434 b03e b71b 753e
00000380: 53aa cdbd bf11 0a3d c445 c4bb 4335 b43a
00000390: aa99 9a3d a246 99bd 0936 3abe ac52 8f3b
000003a0: 84ce 5d3d 19c6 d0bd a8d7 41bc 4d2f 83be
000003b0: d1d2 f5bd af56 4abd 2a01 8f3d 6290 3e3e
000003c0: c87e 413e 254d cdbd 8760 4abd 9b9c d0bc
000003d0: 7e5a 7b3d a15a 083e 7a84 e8bc 4599 803d
000003e0: 99d6 c8bc 8cb1 0dbe 85ac 08be 647c 1fbd
000003f0: 42c8 febd 1185 ec3d c43c f23d 41ee 183d

bias f4 [128]
0.002223958 -0.010577414 0.013569244 0.12159848 -0.044957083 -0.0007883979 0.008219237 0.008740078
-0.02796257 0.010443942 -0.032746248 0.041036393 -0.033321094 -0.009261979 0.0055442876 0.050234668
-0.07950288 0.027911332 -0.06685317 -0.07969556 0.024812013 -0.10235704 0.0057534873 -0.03717125
-0.059874557 -0.05878558 -0.09422192 -0.03281041 0.012415172 0.058780674 -0.020210652 0.022509327
0.02155469 0.08085408 0.047474068 0.05193436 -0.007529112 -0.015137563 -0.010576709 0.02402153
0.064256564 0.07314278 0.0055691246 0.006753049 -0.08307602 0.03009338 0.008667305 -0.04139162
-0.040625565 -0.089920916 0.042193215 0.01053065 0.03372613 0.024506474 0.021217883 0.02194578
0.002056546 -0.010247125 0.027211204 -0.031391878 0.016885951 -0.024367286 -0.05865813 -0.05780933
-0.06385729 -0.060235854 -0.115041 -0.05448308 -0.020456651 0.062201254 -0.0002635361 0.04115239
0.050853048 0.10139186 0.033468507 -0.041864 -0.0017375982 0.04012953 0.034950774 0.006668804
-0.02287218 -0.030727874 0.012456207 -0.10778791 0.07861426 0.029776933 -0.08011232 0.07324963
0.08384977 0.048875038 0.01634647 -0.047679905 0.08447744 -0.0057889223 -0.054304264 0.008780005
-0.08243989 0.012965796 -0.028452646 0.03313115 -0.04818204 0.0006057988 -0.026368978 0.0624546
-0.022475237 0.0009015585 -0.041079946 -0.05348045 -0.115773514 0.043434523 -0.041394617 0.019704862
0.07930097 -0.050613556 0.07310914 0.025208516 0.036188066 -0.0324556 0.026517246 -0.01274259
0.043836348 -0.019518435 0.0120193185 0.0023041011 0.03801066 -0.10653412 -0.03144685 0.11016493
00000000: d3bf 113b e44c 2dbc 8951 5e3c a008 f93d
00000010: eb24 38bd 7dac 4eba fba9 063c 8b32 0f3c
00000020: c211 e5bc 111d 2b3c ee20 06bd c715 283d
00000030: b37b 08bd 8ebf 17bc dbac b53b dec2 4d3d
00000040: 68d2 a2bd 4ea6 e43c 51ea 88bd 6d37 a3bd
00000050: 9042 cb3c 91a0 d1bd c087 bc3b e140 18bd
00000060: 063f 75bd 26c9 70bd 6cf7 c0bd 3564 06bd
00000070: 0169 4b3c 01c4 703d cf90 a5bc 7b65 b83c
00000080: 7693 b03c d396 a53d 2b74 423d 20b9 543d
00000090: c5b6 f6bb 8b03 78bc ef49 2dbc cdc8 c43c
000000a0: f298 833d e2cb 953d 347d b63b ae48 dd3b
000000b0: c323 aabd 6486 f63c 5001 0e3c 428a 29bd
000000c0: fe66 26bd 7528 b8bd cbd2 2c3d bf88 2c3c
000000d0: 6924 0a3d cdc1 c83c 20d1 ad3c a3c7 b33c
000000e0: 1ec7 063b 8fe3 27bc 08ea de3c c594 00bd
000000f0: 6854 8a3c e79d c7bc 8243 70bd 7ac9 6cbd
00000100: 9cc7 82bd dfb9 76bd 9e9a ebbd a629 5fbd
00000110: b594 a7bc bec6 7e3d 372b 8ab9 698f 283d
00000120: 494b 503d 89a6 cf3d 4616 093d 9679 2bbd
00000130: 1fc0 e3ba dd5e 243d 8b28 0f3d fc85 da3b
00000140: 705e bbbc 06b9 fbbc 1e15 4c3c e8bf dcbd
00000150: 8300 a13d c1ee f33c ee11 a4bd e703 963d
00000160: 6eb9 ab3d 3131 483d 08e9 853c 014c 43bd
00000170: 8202 ad3d 00b1 bdbb 266e 5ebd 03da 0f3c
00000180: 3fd6 a8bd 7d6e 543c 8615 e9bc 87b4 073d
00000190: 885a 45bd 78ce 1e3a c103 d8bc 65d0 7f3d
000001a0: fd1d b8bc 9156 6c3a 7243 28bd 510e 5bbd
000001b0: aa1a edbd 66e8 313d 678d 29bd 176c a13c
000001c0: 8c68 a23d 2950 4fbd 3fba 953d 1782 ce3c
000001d0: f039 143d 2af0 04bd b23a d93c 4cc6 50bc
000001e0: be8d 333d 20e5 9fbc adec 443c 6700 173b
000001f0: 11b1 1b3d 902e dabd 6ace 00bd 279e e13d

weight f4 [64, 128]
-0.11609031 -0.16009271 0.12813729 -0.08245498 0.338114 -0.04663141 -0.14320144 0.16432907
0.0380408 -0.014828865 -0.21596566 0.16375753 0.13993673 -0.029706022 0.08054117 -0.11959797
0.19533303 0.051223513 0.014057871 -0.18537639 -0.10124477 0.27574092 -0.079272635 0.0347251
0.30295974 -0.061623182 0.06064446 -0.07805281 0.2155653 0.008348178 -0.041398667 -0.07114755
0.015847731 -0.07859916 -0.04601409 0.012498377 -0.047237255 0.2176673 0.14310452 -0.2053392
0.054833382 -0.16775638 -0.012890736 0.017199283 0.09496787 -0.002820873 -0.24202386 -0.07476299
0.07748215 0.05842062 0.027033841 0.05985198 -0.094400324 -0.1736271 -0.05268824 0.10871898
-0.18552597 0.05504691 -0.14436847 -0.18027656 0.044012845 -0.11235261 -0.10652596 0.19091485
-0.015734114 -0.0074527664 0.2828681 0.22104318 -0.12004154 -0.20121413 -0.008667721 0.1904204
-0.060731348 -0.3277525 -0.008844533 0.30659616 0.1266398 -0.025844427 -0.038652714 0.22843824
0.19372414 0.013480969 -0.062430594 0.1461739 0.009378748 0.2316368 -0.1825223 -0.09438247
-0.14272098 -0.17716117 0.030221373 0.20575514 -0.02811788 -0.046228435 0.056826632 0.17837784
0.28312826 0.010275064 0.022905145 -0.17534797 -0.007599563 -0.048384774 -0.1282515 -0.013680821
-0.13825881 0.1647327 -0.0639428 -0.0719693 0.017487196 0.14483114 -0.043825738 -0.16564547
0.08055487 -0.1497579 0.003225086 0.07664936 -0.23412494 0.06478507 -0.019983396 0.0072488976
-0.066685185 -0.023006544 -0.06410933 0.13095924 -0.08414819 0.07016255 -0.2840147 -0.06777536
-0.12853834 -0.034972772 -0.13547613 0.06877281 0.08588047 -0.2399996 -0.1263924 0.017858438
-0.086768575 0.011712736 -0.040968385 0.04915445 -0.0839209 0.08431516 0.07432747 0.041204296
0.024918472 -0.058792464 -0.14437297 0.05497874 -0.08056543 0.14773399 -0.062990084 0.15259832
-0.05063231 -0.15937027 -0.015842337 -0.1779198 0.070755765 0.049464535 0.027541786 0.1025633
-0.033530287 0.05284641 0.2621584 0.060253743 -0.100393474 0.02109238 -0.03284225 0.124638736
-0.07115036 -0.0084623685 0.002802385 -0.09533378 -0.04737943 -0.016754698 -0.05003693 -0.12642069
-0.08729435 -0.06677063 -0.008765731 0.06742107 -0.018967863 -0.069111794 -0.010238978 0.036188923
-0.094354734 -0.056253094 0.030364787 -0.17127386 -0.004338559 -0.16692246 -0.14241399 0.16213691
0.019379865 0.11655143 -0.10829196 0.12702398 -0.0012629827 0.007849382 -0.097687066 -0.010325246
0.1277649 0.034527276 -0.084874704 -0.01824577 0.14752765 0.06743941 0.09802357 -0.049486976
-0.049121607 -0.025965912 -0.16449511 -0.057034694 0.07313929 0.003589175 -0.050370187 0.12557063
0.0016108641 -0.18331712 -0.053897627 -0.0033147119 -0.04278465 -0.013446649 -0.021975128 0.14988342
0.00024635083 -0.023125676 -0.021420537 -0.05777702 0.021521611 -0.020054286 0.034385066 0.00032149834
-0.08299344 -0.11251802 0.20991601 -0.036851484 -0.049636345 0.1275186 -0.08565364 -0.21072203
0.06630821 0.06303112 0.010948848 0.015025505 0.025561387 -0.009638109 0.1034104 -0.051559143
-0.0013949005 -0.06478726 -0.16305923 -0.09970721 -0.050630774 -0.17334485 -0.015937215 0.026097974
00000000: c2c0 edbd 58ef 23be 6c36 033e 28de a8bd
00000010: 471d ad3e 9400 3fbd 66a3 12be e145 283e
00000020: abd0 1b3d c5f4 72bc 1a26 5dbe 0eb0 273e
00000030: 934b 0f3e 0b5a f3bc c5f2 a43d c8ef f4bd
00000040: 6205 483e bfcf 513d fc52 663c 4fd3 3dbe
00000050: 6b59 cfbd ea2d 8d3e b159 a2bd e83b 0e3d
00000060: 8a1d 9b3e 9768 7cbd 5366 783d 27da 9fbd
00000070: 26bd 5c3e ccc6 083c a691 29bd cfb5 91bd
00000080: 1ad3 813c 99f8 a0bd 4579 3cbd fec5 4c3c
00000090: da7b 41bd 2de4 5e3e fe89 123e 7044 52be
000000a0: f898 603d 54c8 2bbe aa33 53bc 83e5 8c3c
000000b0: 847e c23d 65de 38bb 1ad5 77be 571d 99bd
000000c0: f6ae 9e3d 764a 6f3d 1376 dd3c 5a27 753d
000000d0: f554 c1bd 4dcb 31be a0cf 57bd 0ea8 de3d
000000e0: 85fa 3dbe de78 613d 54d5 13be 6b9a 38be
000000f0: d046 343d 2019 e6bd 482a dabd 2f7f 433e
00000100: d4e4 80bc 5636 f4bb 16d4 903e 2559 623e
00000110: 57d8 f5bd 140b 4ebe 0f03 0ebc 91fd 423e
00000120: 6fc1 78bd 2dcf a7be a9e8 10bc 2cfa 9c3e
00000130: ddad 013e b1b7 d3bc 4f52 1ebd b7eb 693e
00000140: 9f5f 463e 48df 5c3c 39b7 7fbd 9cae 153e
00000150: 52a9 193c 3332 6d3e 20e7 3abe 994b c1bd
00000160: 7325 12be bd69 35be d092 f73c 7ab1 523e
00000170: 7857 e6bc 075a 3dbd 0bc3 683d aea8 363e
00000180: 30f6 903e be58 283c 92a3 bb3c 6b8e 33be
00000190: c105 f9bb 1d2f 46bd 5c54 03be 8625 60bc
000001a0: b893 0dbe b0af 283e 71f4 82bd a464 93bd
000001b0: 4f41 8f3c 9d4e 143e 9e82 33bd f79e 29be
000001c0: f4f9 a43d 235a 19be f75b 533b 57fa 9c3d
000001d0: 73be 6fbe 09ae 843d 38b4 a3bc 2988 ed3b
000001e0: 3e92 88bd 3878 bcbc c14b 83bd 2e1a 063e
000001f0: e355 acbd 62b1 8f3d 606a 91be cfcd 8abd
00000200: 8e9f 03be 9c3f 0fbd 41ba 0abe c2d8 8c3d
00000210: 1ae2 af3d 75c2 75be 026d 01be dc4b 923c
00000220: b9b3 b1bd c7e6 3f3c 77ce 27bd 2d56 493d
00000230: b9de abbd 6dad ac3d 0039 983d d6c5 283d
00000240: d321 cc3c 5ed0 70bd 82d6 13be 6331 613d
00000250: 7dff a4bd 9447 173e f200 81bd bc42 1c3e
00000260: d363 4fbd f631 23be cac7 81bc 9c30 36be
00000270: 66e8 903d 539b 4a3d 509f e13c b50c d23d
00000280: 0e57 09bd 7a75 583d a039 863e a1cc 763d
00000290: 189b cdbd edc9 ac3c 9885 06bd 9842 ff3d
000002a0: 48b7 91bd bfa5 0abc 38a8 373b 5b3e c3bd
000002b0: ef10 42bd 2641 89bc 86f3 4cbd 6d74 01be
000002c0: 61c7 b2bd 0abf 88bd 249e 0fbc 0f14 8a3d
000002d0: 7e62 9bbc 7c8a 8dbd 63c1 27bc d63a 143d
000002e0: 0e3d c1bd a569 66bd 93bf f83c 6a62 2fbe
000002f0: 792a 8ebb b9ed 2abe f9d4 11be 3807 263e
00000300: 86c2 9e3c 84b2 ee3d 2dc8 ddbd 9312 023e
00000310: ab8a a5ba b29a 003c 2810 c8bd 382b 29bc
00000320: cdd4 023e 796c 0d3d cad2 adbd 2778 95bc
00000330: 7d11 173e ac1d 8a3d 95c0 c83d dbb2 4abd
00000340: bd33 49bd 77b6 d4bc 6871 28be 369d 69bd
00000350: 0dca 953d 5d38 6b3b f850 4ebd 9695 003e
00000360: a123 d33a 7cb7 3bbe c2c3 5cbd a33b 59bb
00000370: f53e 2fbd 554f 5cbc 2f05 b4bc 0a7b 193e
00000380: a628 8139 0f72 bdbc 1f7a afbc 99a7 6cbd
00000390: 174e b03c e348 a4bc 5bd7 0c3d c78e a839
000003a0: 77f8 a9bd d96f e6bd 39f4 563e 95f1 16bd
000003b0: 7b4f 4bbd 3c94 023e 2d6b afbd 84c7 57be
000003c0: 99cc 873d 7616 813d cc62 333c 892d 763c
000003d0: 1d66 d13c 29e9 1dbc d5c8 d33d ae2f 53bd
000003e0: 18d5 b6ba 2faf 84bd 00f9 26be 4b33 ccbd
000003f0: 3762 4fbd 5081 31be c38e 82bc 6bcb d53c

bias f4 [64]
-0.11392174 -0.007769425 0.03743366 0.09364905 0.07154708 -0.09238022 -0.15662241 0.007179409
-0.036762286 -0.09076334 0.04727195 -0.050714172 -0.04361305 -0.18352509 -0.17570089 0.08313368
0.12170421 -0.06848364 -0.009362404 -0.07757506 -0.055559002 0.019303136 -0.022441123 -0.037318554
-0.14072372 -0.15027213 -0.03725917 -0.012121369 -0.1405265 -0.022482153 -0.025662243 -0.043121345
0.054048665 0.046803787 -0.1109718 -0.018729888 0.022843808 -0.13784046 0.019906648 -0.007010758
-0.10161518 -0.08649782 0.038268447 -0.007684315 0.066167094 0.01730579 -0.0940642 0.051700346
0.057826113 -0.037874486 -0.10418367 -0.07332933 -0.013219168 0.05330501 0.013964132 -0.055235785
-0.17597537 -0.019208051 -0.11667724 -0.023532167 0.021912346 -0.16391234 0.004304784 -0.05946471
00000000: cd4f e9bd a996 febb 0a54 193d 13cb bf3d
00000010: 4787 923d d731 bdbd a061 20be 3f41 eb3b
00000020: 0d94 16bd 21e2 b9bd 3ba0 413d aab9 4fbd
00000030: 99a3 32bd 00ee 3bbe efea 33be fe41 aa3d
00000040: 0f40 f93d 2741 8cbd c564 19bc acdf 9ebd
00000050: d691 63bd 9c21 9e3c 72d6 b7bc 57db 18bd
00000060: e119 10be f0e0 19be 129d 18bd b598 46bc
00000070: 2ee6 0fbe 7e2c b8bc a039 d2bc 02a0 30bd
00000080: 2262 5d3d 54b5 3f3d 2f45 e3bd 6c6f 99bc
00000090: f022 bb3c 0d26 0dbe 4413 a33c 80ba e5bb
000000a0: 9f1b d0bd c525 b1bd 60bf 1c3d b5cc fbbb
000000b0: 9d82 873d dfc4 8d3c bba4 c0bd bec3 533d
000000c0: 13db 6c3d 4722 1bbd 3f5e d5bd b02d 96bd
000000d0: 3695 58bc 5b56 5a3d d1c9 643c eb3e 62bd
000000e0: e332 34be 345a 9dbc 7af4 eebd 88c6 c0bc
000000f0: 8581 b33c a3d8 27be 250f 8d3b 4591 73bd

weight f4 [12, 64]
0.0165119 0.07238428 -0.21144645 -0.22386552 -0.111328654 0.093887515 0.045887947 -0.03847745
-0.008891674 0.16331697 -0.19551733 0.026404433 0.055372193 0.028755713 0.27406207 0.06498192
0.022121856 0.091276675 0.027500508 0.026467353 0.09899338 -0.005773 -0.12704562 -0.0042186035
0.042260207 0.05096648 -0.08600753 0.18279491 -0.011182536 0.051840715 -0.13272257 0.06446318
-0.1345889 0.07470346 -0.103216305 -0.22451495 0.10480358 0.09093502 -0.034395617 -0.16027315
0.0554185 -0.059389617 -0.0482788 0.13729562 0.2590865 0.13153318 0.13371481 -0.19014509
0.039068885 -0.056001205 -0.097299874 0.051906064 0.2639359 -0.092871025 -0.21258928 0.10050973
0.088639215 -0.074975714 -0.2612913 -0.030712955 0.108087726 0.18982519 -0.10555673 -0.02380798
0.14485188 0.12723117 0.19970027 -0.04924377 0.102525495 -0.10868373 -0.064675525 0.28158644
-0.07296971 -0.020049123 -0.17348723 -0.05120986 -0.0028240983 -0.092630096 -0.1592052 0.009797892
0.11575574 0.2540834 -0.029161947 -0.17545763 -0.109935954 -0.10620178 0.047030255 0.15978774
-0.16903019 -0.025171628 0.03937334 -0.10547063 -0.1994986 -0.14552402 0.08226502 -0.04628565
0.06655196 -0.024671901 0.14191222 -0.068207964 0.20330459 -0.10172124 -0.12767604 -0.070929155
0.16197109 -0.026789322 0.107598074 -0.113224186 0.036605064 -0.123727925 0.1885328 -0.20545453
0.091752425 0.009687604 -0.16891927 0.018349487 0.00017023727 0.0130950315 -0.0348329 -0.10414138
-0.029828528 -0.057529435 -0.0747094 0.2563222 0.17813013 -0.012388515 0.06772414 0.09581497
-0.14985837 -0.13164681 -0.023865571 0.061221946 -0.08138965 0.13472083 0.017429406 -0.052113794
0.097022586 -0.008001656 -0.05807209 -0.07010205 -0.014045544 0.0891639 0.10819935 -0.07927456
-0.016809812 -0.06053866 0.11322167 0.006527204 0.0898917 -0.035929266 0.1667944 -0.027596226
0.0978714 0.15945823 -0.0496065 0.06964605 -0.16278566 -0.0055675446 -0.047941186 0.022663174
-0.093290746 -0.04382239 0.022466727 0.08551965 -0.09579816 0.019233529 -0.025577921 0.029716657
0.031730827 0.033835363 -0.02037296 0.07838577 -0.012409459 0.10823808 0.021929866 0.16249344
0.043291807 -0.17741394 0.10928486 0.011163687 -0.11257425 -0.05700811 0.057564832 -0.019578729
0.15396506 0.078885056 -0.12488369 -0.07492547 -0.058083862 -0.033976324 0.006609976 -0.08042665
0.25233516 -0.07888806 0.016721662 -0.039616622 0.0802295 0.071096905 0.12814718 0.02141957
-0.071278326 0.055551607 -0.06677179 0.18141991 0.09261821 -0.050291833 0.057636864 -0.061627638
0.006609881 -0.062944636 -0.12003683 0.18687011 0.011800414 -0.018856779 -0.03743306 0.014658331
0.024253843 0.1507913 0.03529934 0.06964097 -0.0015402664 0.23443039 0.13973151 -0.3694659
-0.0301945 -0.073615365 0.12331971 -0.20547105 -0.06766379 0.23479484 0.07461727 0.050962232
-0.019588869 -0.0018457043 -0.3235212 0.15989271 0.10940196 0.061822917 0.11076137 0.056025125
0.048119515 0.015416365 0.014346611 0.06288949 0.02015646 0.075084284 -0.0034586152 -0.085739665
-0.07106085 -0.12993678 -0.0068325237 -0.15413667 0.2090853 0.17115824 -0.018547947 0.09183015
00000000: f743 873c 363e 943d 6b85 58be 013d 65be
00000010: 4700 e4bd 1948 c03d 00f5 3b3d 889a 1dbd
00000020: 62ae 11bc 903c 273e b235 48be 1c4e d83c
00000030: f4cd 623d 1a91 eb3c dd51 8c3e 3e15 853d
00000040: e538 b53c 44ef ba3d bf48 e13c 10d2 d83c
00000050: 0bbd ca3d 6f2b bdbb 3f18 02be 363c 8abb
00000060: 0a19 2d3d 3ac2 503d b724 b0bd 972e 3b3e
00000070: f536 37bc ee56 543d 6de8 07be 4605 843d
00000080: acd1 09be 21fe 983d 1263 d3bd 3fe7 65be
00000090: 42a3 d63d 243c ba3d 6be2 0cbd a51e 24be
000000a0: 82fe 623d 8742 73bd febf 45bd 3997 0c3e
000000b0: fca6 843e a2b0 063e 89ec 083e 65b5 42be
000000c0: b206 203d 8561 65bd 2845 c7bd 749b 543d
000000d0: 9b22 873e 2a33 bebd 01b1 59be 0cd8 cd3d
000000e0: 7a88 b53d de8c 99bd f9c7 85be bc99 fbbc
000000f0: 195d dd3d 8961 423e 202e d8bd f408 c3bc
00000100: 0d54 143e e348 023e 3a7e 4c3e d6b3 49bd
00000110: e3f8 d13d 9395 debd 9a74 84bd 192c 903e
00000120: 2571 95bd 0f3e a4bc a3a6 31be 6ec1 51bd
00000130: 8214 39bb d9b4 bdbd b006 23be 5687 203c
00000140: 5811 ed3d 3817 823e 09e5 eebc 2aab 33be
00000150: 1a26 e1bd 5280 d9bd cca2 403d 669f 233e
00000160: 4016 2dbe bb34 cebc f045 213d fc00 d8bd
00000170: 5c49 4cbe 4004 15be 907a a83d 0696 3dbd
00000180: 654c 883d ba1c cabc 7051 113e 9eb0 8bbd
00000190: 142f 503e 3a53 d0bd 82bd 02be 4e43 91bd
000001a0: c0db 253e 4875 dbbc 615c dc3d 15e2 e7bd
000001b0: 31ef 153d 1165 fdbd be0e 413e ac62 52be
000001c0: b2e8 bb3d c2b8 1e3c 2cf9 2cbe aa51 963c
000001d0: b881 3239 8b8c 563c f1ac 0ebd 1348 d5bd
000001e0: f55a f4bc fca3 6bbd 3e01 99bd aa3c 833e
000001f0: bf67 363e 33f9 4abc f4b2 8a3d a43a c43d
00000200: 7974 19be 6cce 06be bb81 c3bc ddc3 7a3d
00000210: 9eaf a6bd 42f4 093e 1dc8 8e3c 4675 55bd
00000220: c7b3 c63d 6119 03bc 00dd 6dbd aa91 8fbd
00000230: 481f 66bc 909b b63d 9f97 dd3d b35a a2bd
00000240: bbb4 89bc 63f7 77bd c3e0 e73d 28e2 d53b
00000250: 2419 b83d 912a 13bd 27cc 2a3e 7b11 e2bc
00000260: cd70 c83d 0549 233e 2f30 4bbd 97a2 8e3d
00000270: 49b1 26be f36f b6bb fa5d 44bd 1fa8 b93c
00000280: 380f bfbd 1b7f 33bd 240c b83c ed24 af3d
00000290: d331 c4bd a28f 9d3c ca88 d1bc 5970 f33c
000002a0: 2ff8 013d f396 0a3d 32e5 a6bc b888 a03d
000002b0: 0b51 4bbc edab dd3d 43a6 b33c ae64 263e
000002c0: c052 313d 00ac 35be bed0 df3d e6e7 363c
000002d0: 548d e6bd 5681 69bd 1ac9 6b3d 9263 a0bc
000002e0: 04a9 1d3e 7d8e a13d 05c3 ffbd 8672 99bd
000002f0: 58e9 6dbd c22a 0bbd 7f98 d83b bab6 a4bd
00000300: 1332 813e 1090 a1bd defb 883c 0a45 22bd
00000310: 5d4f a43d 419b 913d 0439 033e 1878 af3c
00000320: 5ffa 91bd 158a 633d a6bf 88bd 24c6 393e
00000330: 9eae bd3d cffe 4dbd a214 6c3d 436d 7cbd
00000340: b397 d83b 1ee9 80bd dfd5 f5bd e15a 3f3e
00000350: 8656 413c 8879 9abc 6953 19bd 7f29 703c
00000360: ffaf c63c 0969 1a3e 0a96 103d ed9f 8e3d
00000370: c4e2 c9ba 850e 703e c715 0f3e a22a bdbe
00000380: 755a f7bc a7c3 96bd 0b8f fc3d 0167 52be
00000390: 5093 8abd 0f6e 703e f0d0 983d c6bd 503d
000003a0: d678 a0bc 8feb f1ba 92a4 a5be eaba 233e
000003b0: 230e e03d 073a 7d3d dbd6 e23d 9a7a 653d
000003c0: f818 453d ec94 7c3c 0c0e 6b3c 34cc 803d
000003d0: 291f a53c cac5 993d efa9 62bb 4798 afbd
000003e0: 5a88 91bd 260e 05be 5de3 dfbb 01d6 1dbe
000003f0: 751a 563e 1b44 2f3e ddf1 97bc 7211 bc3d

bias f4 [12]
0.019414496 0.108278334 -0.010654587 0.05167945 -0.02072781 0.008306062 0.057962712 -0.124599494
0.12580885 -0.14444508 0.050035827 0.118035816
00000000: 260b 9f3c 08c1 dd3d 9490 2ebc d5ad 533d
00000010: 5ecd a9bc 2616 083c 4f6a 6d3d 052e ffbd
00000020: 09d4 003e 69e9 13be 5ef2 4c3d c3bc f13d

weight_ih_l0 f4 [512, 47]
0.022110255 -0.19215055 -0.040303074 0.11317102 0.15027942 -0.11540864 0.014849251 -0.018701578
-0.24634464 -0.2008107 -0.21165085 0.004620166 0.24486074 0.12153932 -0.0774073 -0.21932355
-0.24800506 0.26127526 0.11437614 -0.028315693 -0.07256994 -0.1377939 -0.19971454 0.1590595
0.39428356 0.004024923 0.19930255 0.0860564 -0.091410756 0.010050328 0.0030389635 -0.012652971
-0.21761216 -0.07042611 0.015640391 0.00081131095 0.37900373 -0.07676308 0.038045205 0.1319855
-0.09651778 0.109510176 0.24339734 -0.07424534 -0.06645137 0.13778082 0.11138198 -0.11335547
-0.12898055 -0.2366081 -0.081623286 0.55701035 0.029633835 0.035113636 0.043298922 -0.0063393684
-0.31798714 -0.03766808 0.18356562 -0.20742382 0.15717871 -0.10494757 -0.028617268 0.16270994
-0.014505243 -0.15197825 0.019185247 0.062165372 -0.51679194 -0.021108871 0.016941044 0.15958561
0.11274503 -0.047692448 -0.23245767 0.23232296 -0.093771346 0.3007211 0.061074514 -0.00647505
-0.1957066 0.1313801 0.11708312 0.10959044 0.043694444 -0.07087251 0.004380188 -0.05281139
0.30413616 0.06370834 0.13377848 -0.1104614 -0.089782216 -0.04986052 -0.08266653 -0.003823436
0.5387436 0.45854682 0.023210013 0.0010208222 -0.02671831 0.0055583683 0.053686738 -0.15948083
0.099385604 -0.0037130034 0.006865146 0.005622495 -0.115750074 -0.20325707 -0.17384696 0.11109969
-0.30401996 -0.07504169 0.029078275 -0.06097189 0.2896935 -0.096775286 0.23586544 0.020093286
-0.07759815 -0.08103673 -0.07304683 -0.103156365 0.29899198 -0.17138058 -0.2021584 -0.17133927
0.17531982 0.02663855 0.034791496 0.072140925 -0.017424723 -0.074038066 0.0099408515 0.05504635
-0.039480668 -0.13152349 0.026743434 0.08171986 0.021820948 0.026619822 0.096808225 0.08313567
-0.0097505655 -0.030243907 -0.08072386 -0.06179989 -0.041759275 -0.09417417 0.21064782 -0.37977505
0.07740527 -0.10046876 0.096771196 0.084902056 0.02670161 0.00209251 0.06305079 0.1610865
-0.09739463 0.1489496 0.16012521 -0.08614721 0.25422788 0.09077712 -0.22036551 -0.11375174
0.19598205 0.47373068 0.038271718 0.08674746 -0.21694347 0.19871491 -0.18803409 -0.033422273
0.0833352 -0.25065857 -0.09425125 -0.08378177 0.17792386 -0.047882617 0.18528828 0.18968487
-0.055540763 -0.07524184 0.08151883 0.11273259 0.24847125 0.14369023 -0.23061198 -0.22217055
-0.51772076 0.12165955 -0.062267236 -0.07451771 -0.112245806 0.10266546 0.037220452 -0.15926635
-0.23825313 0.098653905 -0.063941084 0.09463037 -0.0008098667 -0.03902488 0.016862754 0.26499382
0.18544868 0.17352466 0.19462022 0.06829653 -0.26990408 0.15119973 -0.20238315 -0.13256879
-0.24775721 -0.0030726083 0.1074204 0.20503834 0.10643371 -0.019157734 0.12204291 -0.004360699
-0.16613056 0.13579312 -0.023907164 -0.07959262 -0.09733321 -0.022684855 0.24727839 -0.028441083
0.060781714 0.016765684 0.21326981 0.06803619 -0.101319656 0.03089195 -0.31383374 -0.22267899
-0.057076216 0.0172235 0.06366747 0.101525635 -0.21977895 0.7293507 -0.38848975 -0.07755038
0.17928174 -0.22787742 0.035076927 0.5367586 -0.28572106 -0.004166078 0.0578495 -0.14706048
00000000: 9120 b53c 1dc3 44be d614 25bd 35c6 e73d
00000010: d9e2 193e 5d5b ecbd 464a 733c 0d34 99bc
00000020: c541 7cbe 52a1 4dbe 00bb 58be c364 973b
00000030: c6bc 7a3e 9be9 f83d b887 9ebd 5a96 60be
00000040: 0af5 7dbe dfc5 853e 0a3e ea3d 50f6 e7bc
00000050: 8c9f 94bd d819 0dbe f881 4cbe 7ee0 223e
00000060: 89df c93e 80e3 833b f815 4c3e 563e b03d
00000070: 9035 bbbd 22aa 243c 5929 473b 684e 4fbc
00000080: b9d5 5ebe 903b 90bd 4720 803c 28ae 543a
00000090: c70c c23e f635 9dbd 4ad5 1b3d 3527 073e
000000a0: 1dab c5bd df46 e03d 273d 793e f10d 98bd
000000b0: a817 88bd 6a16 0d3e 3c1c e43d ea26 e8bd
000000c0: 7a13 04be 6549 72be 1c2a a7bd 3b98 0e3f
000000d0: a8c2 f23c 51d3 0f3d 365a 313d 7aba cfbb
000000e0: 36cf a2be d849 1abd a0f8 3b3e e966 54be
000000f0: 75f3 203e c0ee d6bd c36e eabc 6f9d 263e
00000100: 66a7 6dbc 30a0 1bbe 612a 9d3c 1ea1 7e3d
00000110: 7a4c 04bf 83ec acbc f2c7 8a3c 696a 233e
00000120: dee6 e63d 2859 43bd 6209 6ebe 12e6 6d3e
00000130: 310b c0bd 1ef8 993e 4529 7a3d a82c d4bb
00000140: 5067 48be 8188 063e 46c9 ef3d f470 e03d
00000150: f2f8 323d 9b25 91bd ae87 8f3b c250 58bd
00000160: bcb7 9b3e 8579 823d 3afd 083e 9639 e2bd
00000170: bddf b7bd 8b3a 4cbd 124d a9bd 9d92 7abb
00000180: 1aeb 093f a6c6 ea3e ed22 be3c 1ccd 853a
00000190: 5be0 dabc f922 b63b a0e6 5b3d f14e 23be
000001a0: ae8a cb3d dc55 73bb 05f5 e03b e83c b83b
000001b0: 600e edbd 9f22 50be f004 32be 3c88 e33d
000001c0: 81a8 9bbe 75af 99bd 9035 ee3c a9bd 79bd
000001d0: b552 943e 1f32 c6bd b686 713e ad9a a43c
000001e0: c7eb 9ebd 96f6 a5bd 9499 95bd a543 d3bd
000001f0: 7a15 993e 647e 2fbe 9d02 4fbe 9073 2fbe
00000200: 0a87 333e 1739 da3c 8781 0e3d 9fbe 933d
00000210: 4bbe 8ebc 45a1 97bd f4de 223c 4878 613d
00000220: 7bb6 21bd 18ae 06be 0c15 db3c be5c a73d
00000230: d8c1 b23c d011 da3c 6443 c63d 0943 aa3d
00000240: d6c0 1fbc 12c2 f7bc 8d52 a5bd e221 7dbd
00000250: c60b 2bbd 63de c0bd 10b4 573e e071 c2be
00000260: a786 9e3d 91c2 cdbd fa2f c63d 21e1 ad3d
00000270: 56bd da3c 7e22 093b c620 813d dcf3 243e
00000280: d676 c7bd 3e86 183e ddf7 233e f36d b0bd
00000290: 282a 823e 5be9 b93d 7fa7 61be acf6 e8bd
000002a0: 85af 483e d48c f23e cec2 1c3d a7a8 b13d
000002b0: 6e26 5ebe ec7b 4b3e 028c 40be cbe5 08bd
000002c0: a5ab aa3d 5256 80be cd06 c1bd c795 abbd
000002d0: ac31 363e 9020 44bd 36bc 3d3e c03c 423e
000002e0: b67e 63bd 6518 9abd 58f3 a63d 58e0 e63d
000002f0: 3f6f 7e3e 8823 133e 8c25 6cbe ad80 63be
00000300: 5989 04bf a428 f93d ee0b 7fbd be9c 98bd
00000310: 21e1 e5bd 4542 d23d 7974 183d b816 23be
00000320: a1f8 73be 0f0b ca3d 8bf3 82bd 91cd c13d
00000330: 3c4d 54ba 8dd8 1fbd c223 8a3c 45ad 873e
00000340: 42e6 3d3e 73b0 313e 864a 473e 0ddf 8b3d
00000350: de30 8abe 1ad4 1a3e 873d 4fbe 1dc0 07be
00000360: 11b4 7dbe d05d 49bb 3aff db3d 92f5 513e
00000370: ebf9 d93d aef0 9cbc a2f1 f93d 32e4 8ebb
00000380: 211e 2abe 5a0d 0b3e f5d8 c3bc 7501 a3bd
00000390: a256 c7bd 97d5 b9bc 8c36 7d3e 46fd e8bc
000003a0: 3ff6 783d 3058 893c 6763 5a3e 8f56 8b3d
000003b0: ae80 cfbd 1d11 fd3c d1ae a0be f605 64be
000003c0: c0c8 69bd 4c18 8d3c 1764 823d acec cf3d
000003d0: bc0d 61be bab6 3a3f 21e8 c6be bcd2 9ebd
000003e0: a295 373e b358 69be d3ac 0f3d 0369 093f
000003f0: 084a 92be 9883 88bb 99f3 6c3d 0697 16be

weight_hh_l0 f4 [512, 128]
-0.011398086 0.14217886 -0.15864022 0.13904639 0.030129917 -0.13116369 -0.13665801 0.11452083
0.14755057 0.29137123 -0.06017935 -0.04342607 -0.1400628 -0.07937651 -0.085743256 -0.28697816
-0.07173828 0.22219454 0.09607897 -0.028510192 0.10894296 -0.3026641 -0.06201299 -0.015694099
-0.32369852 0.15724406 0.102418676 0.09978126 -0.22789712 0.042948715 -0.18489866 -0.076553136
-0.046121933 0.114154644 -0.1601659 -0.04369833 0.27703425 0.00789501 -0.14787364 0.06620325
-0.24192566 0.098552465 -0.041139986 0.1508706 -0.21394356 0.026363611 0.063326485 0.076438405
0.017368758 0.020944715 -0.08049113 0.104728475 -0.07877106 0.36123297 -0.00043890372 -0.17312644
-0.1259235 -0.038996924 0.14248997 0.013916434 -0.041897204 -0.1311973 0.08101628 -0.025430704
-0.10226716 -0.014437965 -0.03275022 -0.10891247 0.12789145 -0.09245737 -0.029747374 0.075870894
-0.04031259 -0.1346402 0.11898619 0.47494552 -0.01635835 0.45724362 0.28436452 0.02250858
0.13063009 -0.122881144 -0.10940464 0.0955566 0.19410495 -0.2636123 0.17934822 0.28752887
0.034915958 -0.11985952 -0.15032493 -0.24397191 -0.06830915 -0.008639073 -0.069940954 -0.070477314
-0.16671367 0.024637781 -0.21151848 0.0599771 0.11020097 0.20352618 -0.23678923 -0.014720004
-0.14878991 0.25013158 -0.005418765 0.038495403 -0.08310194 -0.05975752 -0.27311423 0.08490139
0.20970775 0.011989161 0.23704521 -0.062510505 0.066076666 0.0072044316 0.14073451 0.1093147
0.07657909 0.1720771 -0.18045639 -0.17259689 0.2014748 0.022548731 0.33206508 -0.27281588
0.046932712 -0.0029696682 0.043576326 0.110146604 -0.08329054 0.022897858 0.060328957 0.079131186
-0.18616217 0.007473566 -0.051673055 0.14856823 -0.12446272 -0.047523033 0.3176378 0.07134236
0.069004945 0.01216759 0.06855499 -0.25991374 0.25259084 -0.047295302 0.011659774 -0.12217941
0.15686655 -0.04682832 -0.14451537 0.010986859 0.27029586 0.17841975 -0.072781876 0.10019183
-0.1522968 0.257811 -0.009727334 0.23406649 0.17183846 0.13044234 -0.051797513 0.06541053
-0.10615378 0.098104425 0.047346767 0.039249916 0.025134511 0.06844941 -0.13035905 -0.13030443
0.22181547 0.06429028 0.08017886 -0.022710698 -0.15302926 0.12628728 0.12779163 0.27074513
0.12196025 -0.23801379 -0.02870695 -0.066512465 -0.15368745 -0.0050062104 -0.011381247 -0.076746546
-0.1768727 0.14587992 -0.059593216 0.07348059 0.14016683 0.2187979 -0.21436274 -0.10581425
0.30860788 0.053157642 -0.014090113 0.1314873 -0.22039764 0.27877015 0.25028223 -0.058049697
-0.1132393 -0.064966075 0.03436054 0.19001396 -0.0055596847 0.0834698 -0.14373243 -0.21444401
-0.018896572 -0.042355884 0.030834157 0.09922381 -0.090399556 -0.1158731 0.038117588 0.053601287
0.06934523 0.022317035 0.21489412 -0.04732026 -0.09941264 0.23999491 0.03879346 0.18028213
0.070386544 -0.15941332 -0.03593401 0.19783437 -0.07053848 -0.07023497 0.11911311 -0.009360249
0.1500755 -0.12955245 0.09947036 0.02018422 -0.14955483 0.10242625 0.019162476 -0.04908733
-0.38394266 -0.00016906745 0.18874955 0.22160879 0.046405617 0.088953175 -0.05036328 0.08714018
00000000: 0abf 3abc 5697 113e 9572 22be 2d62 0e3e
00000010: 04d3 f63c c64f 06be 14f0 0bbe e689 ea3d
00000020: 7f17 173e 9c2e 953e 9f7e 76bd 89df 31bd
00000030: 9f6c 0fbe 2790 a2bd 299a afbd cdee 92be
00000040: 85eb 92bd f786 633e 0dc5 c43d 358e e9bc
00000050: 7d1d df3d caf6 9abe 5501 7ebd e990 80bc
00000060: d0bb a5be 9604 213e e2c0 d13d 1e5a cc3d
00000070: dd5d 69be feea 2f3d 1356 3dbe e4c7 9cbd
00000080: 5aea 3cbd e9c9 e93d 8802 24be 05fd 32bd
00000090: 6fd7 8d3e 125a 013c 306c 17be 9295 873d
000000a0: 5cbb 77be e0d5 c93d 6782 28bd d37d 1a3e
000000b0: 0514 5bbe 80f8 d73c 51b1 813d bd8b 9c3d
000000c0: ed48 8e3c 4094 ab3c 89d8 a4bd e27b d63d
000000d0: b952 a1bd 87f3 b83e a91c e6b9 0f48 31be
000000e0: 17f2 00be 3dbb 1fbd e4e8 113e c101 643c
000000f0: 679c 2bbd 9658 06be ddeb a53d 0d54 d0bc
00000100: 7271 d1bd 378d 6cbc 1825 06bd 800d dfbd
00000110: faf5 023e 4a5a bdbd c4b0 f3bc 3362 9b3d
00000120: d01e 25bd 1fdf 09be 08af f33d 0f2c f33e
00000130: f201 86bc d61b ea3e 3a98 913e ea63 b83c
00000140: e5c3 053e 1ca9 fbbd 8a0f e0bd 2eb3 c33d
00000150: 73c3 463e 31f8 86be 0fa7 373e fc36 933e
00000160: 0904 0f3d e878 f5bd c7ee 19be c6d3 79be
00000170: abe5 8bbd e68a 0dbc 343d 8fbd 6956 90bd
00000180: fdb6 2abe 2cd5 c93c 4d98 58be 8caa 753d
00000190: 0cb1 e13d 2b69 503e e078 72be 2c2c 71bc
000001a0: 625c 18be 3f11 803e e58f b1bb 5bad 1d3d
000001b0: 5a31 aabd 4dc4 74bd a1d5 8bbe c8e0 ad3d
000001c0: a1bd 563e 306e 443c fbbb 723e 8205 80bd
000001d0: 3453 873d 2713 ec3b b51c 103e 63e0 df3d
000001e0: 7fd5 9c3d fb34 303e 8fc9 38be 3dbd 30be
000001f0: 694f 4e3e 1eb8 b83c 6f04 aa3e 86ae 8bbe
00000200: 843c 403d c49e 42bb 177d 323d 8b94 e13d
00000210: 3b94 aabd 4a94 bb3c 7f1b 773d 880f a23d
00000220: 4ca1 3ebe d1e4 f43b 20a7 53bd 4522 183e
00000230: 4fe6 febd 83a7 42bd 6ca1 a23e f11b 923d
00000240: 7752 8d3d 925a 473c 8f66 8c3d 6a13 85be
00000250: 9653 813e b8b8 41bd a308 3f3c 3339 fabd
00000260: a0a1 203e 0dcf 3fbd d6fb 13be 3a02 343c
00000270: 3864 8a3e abb3 363e aa0e 95bd 6031 cd3d
00000280: b1f3 1bbe ceff 833e 655f 1fbc 20af 6f3e
00000290: 6cf6 2f3e ad92 053e a129 54bd f5f5 853d
000002a0: 2767 d9bd f9ea c83d afee 413d 85c4 203d
000002b0: e4e6 cd3c 342f 8c3d d87c 05be 866e 05be
000002c0: 9823 633e 9faa 833d d034 a43d c90b babc
000002d0: b4b3 1cbe 7451 013e cfdb 023e 1b9f 8a3e
000002e0: 4cc6 f93d e3b9 73be d62a ebbc b037 88bd
000002f0: 3e60 1dbe 230b a4bb 6978 3abc 4b2d 9dbd
00000300: 1e1e 35be 8c61 153e 0418 74bd fe7c 963d
00000310: e587 0f3e 8f0c 603e e881 5bbe 24b5 d8bd
00000320: da01 9e3e d4bb 593d 38da 66bc 9ba4 063e
00000330: ebaf 61be f6ba 8e3e fe24 803e 85c5 6dbd
00000340: 02ea e7bd ef0c 85bd a3bd 0c3d 0593 423e
00000350: 042e b6bb 37f2 aa3d 982e 13be 3697 5bbe
00000360: fccc 9abc 5d7d 2dbd ea97 fc3c da35 cb3d
00000370: 6723 b9bd e04e edbd 3021 1c3d 068d 5b3d
00000380: df04 8e3d 37d2 b63c 340d 5c3e e4d2 41bd
00000390: db98 cbbd 3ac1 753e e4e5 1e3d e19b 383e
000003a0: d226 903d 3f3d 23be 8a2f 13bd 1895 4a3e
000003b0: 7b76 90bd 5ad7 8fbd 93f1 f33d bb5b 19bc
000003c0: 64ad 193e 66a9 04be 1eb7 cb3d 6159 a53c
000003d0: e724 19be dbc4 d13d a0fa 9c3c cc0f 49bd
000003e0: 2294 c4be b347 31b9 9047 413e 6aed 623e
000003f0: d113 3e3d 152d b63d ba49 4ebd 8d76 b23d

bias_ih_l0 f4 [512]
0.08364407 -0.007368348 0.09229732 0.042446923 -0.20032427 -0.046217434 -0.031559043 0.062433645
-0.16966821 -0.09444595 -0.09727079 -0.13132872 0.0068972902 -0.103157535 0.07304703 0.034192592
-0.079583585 0.12576337 -0.22971578 -0.056411 -0.07497637 -0.18428245 -0.06211567 -0.088625364
-0.0077342796 -0.014982545 -0.031253062 -0.07416586 0.018367507 0.108221665 0.08817232 -0.00053808664
0.042488106 -0.017434273 -0.010126567 0.011924732 -0.021875747 -0.10456562 -0.022941494 -0.21425943
0.039755244 0.022344956 -0.029372482 0.05177844 -0.106969655 0.03952539 -0.22054382 -0.13803002
0.078328274 -0.018724127 -0.071029246 -0.049995642 -0.14315772 -0.14491121 -0.11588653 -0.047909725
-0.10587383 0.017962513 -0.1269758 0.106394015 -0.050469037 0.061588135 -0.17456673 -0.040645167
-0.014208026 0.04764196 0.26477274 0.17113133 -0.10258912 -0.14319907 -0.16796571 -0.10057728
0.05325357 -0.05582187 0.06391498 0.13351671 0.07483916 0.026847754 -0.04335771 -0.07144168
0.0030819166 0.08575134 0.021079702 -0.06182351 0.07907363 -0.07723142 -0.25323498 -0.14245176
0.040033124 0.05217278 -0.08058087 -0.14744209 -0.008947298 -0.09198517 0.04495502 -0.08998957
-0.02771969 -0.023080578 -0.048624404 0.049911026 -0.042379074 -0.062106617 -0.046698168 -0.09545244
-0.09747259 0.0011685251 0.027637076 0.32554764 -0.04872723 0.06639956 -0.0171243 -0.15567355
0.03740282 0.18010543 0.16760081 -0.01062643 0.04460232 -0.12419062 -0.18307297 -0.07150728
0.03801932 -0.040310282 0.06990771 -0.14672214 -0.065058894 -0.13631178 -0.026599515 -0.06694213
-0.15088753 -0.04610398 0.021227213 -0.040514138 0.08088481 -0.027344476 0.0004919832 -0.08936366
-0.118629426 -0.1769294 -0.025769351 0.22577149 -0.11292832 -0.15148373 -0.08225046 0.028855808
-0.08407125 -0.10654699 -0.06964897 -0.02432477 -0.028669516 -0.0038615426 0.054194108 -0.113253966
-0.053358022 0.0023229003 -0.14297456 0.003057658 0.004296561 -0.15972659 -0.11086241 -0.024770511
-0.024887154 -0.021527667 0.025616355 -0.13555452 0.012548508 -0.21173298 -0.19744164 -0.042276356
-0.17244066 -0.13822778 -0.106983535 -0.16769205 -0.13711606 -0.077868775 -0.027602898 -0.08912224
0.0012421719 -0.24436481 -0.18170929 -0.00055705657 -0.14066154 -0.042950403 -0.17441791 -0.010583425
0.09029512 0.028887752 -0.086067945 0.012366292 -0.05902405 0.03719966 -0.0657988 -0.10215609
-0.06525888 -0.12314375 -0.06213615 -0.020528782 -0.13031399 -0.1800227 0.14262727 -0.07739534
-0.16776639 -0.010733575 0.20629823 -0.05363655 -0.11667598 0.099674694 -0.19814694 -0.14555418
0.060834862 -0.04878069 -0.08355655 0.08519849 -0.1070731 -0.15431103 -0.03310555 -0.075079985
-0.11889857 -0.13937512 -0.059332646 -0.069851406 -0.24671395 -0.0801641 0.057092622 -0.22532874
0.003796755 0.016432853 0.12515453 -0.04950891 -0.08977755 -0.13999377 0.09491204 0.0035161658
-0.15272072 0.09526075 -0.051314004 -0.0065701813 -0.106693186 -0.21711196 -0.1461419 0.015815645
-0.020026801 -0.055671804 -0.13419746 -0.0791867 -0.0513102 -0.046521343 -0.003921358 0.054571483
-0.0033810623 -0.08139681 -0.18271121 -0.069432095 -0.15178002 -0.030475324 -0.21678446 -0.06481284
00000000: 954d ab3d 2f72 f1bb 6106 bd3d d3dc 2d3d
00000010: ce21 4dbe 7e4e 3dbd 0e44 01bd 6cba 7f3d
00000020: 81bd 2dbe e16c c1bd e835 c7bd 097b 06be
00000030: aa02 e23b 4244 d3bd ae99 953d 880d 0c3d
00000040: b8fc a2bd 1dc8 003e 9d3a 6bbe 390f 67bd
00000050: 368d 99bd 8ab4 3cbe 006d 7ebd 3781 b5bd
00000060: d76f fdbb 5979 75bc 3603 00bd 45e4 97bd
00000070: 7477 963c 52a3 dd3d b093 b43d 620e 0dba
00000080: 0208 2e3d 52d2 8ebc e7e9 25bc f35f 433c
00000090: c434 b3bc 8026 d6bd cdef bbbc d366 5bbe
000000a0: 65d6 223d c50c b73c 8f9e f0bc a115 543d
000000b0: e812 dbbd 60e5 213d 3dd6 61be be57 0dbe
000000c0: 936a a03d 5763 99bc c877 91bd 3bc8 4cbd
000000d0: f097 12be 9b63 14be eb55 edbd fd3c 44bd
000000e0: 61d4 d8bd 1f26 933c f205 02be 1be5 d93d
000000f0: 9fb8 4ebd d743 7c3d 9fc1 32be 8c7b 26bd
00000100: c8c8 68bc 3724 433d 4b90 873e 0d3d 2f3e
00000110: 3f1a d2bd c7a2 12be 34ff 2bbe 76fb cdbd
00000120: 6a20 5a3d 79a5 64bd dbe5 823d 9bb8 083e
00000130: 4645 993d d2ef db3c db97 31bd 0450 92bd
00000140: fbf9 493b 669e af3d 57af ac3c a63a 7dbd
00000150: 5bf1 a13d 822b 9ebd 04a8 81be e0de 11be
00000160: c6f9 233d 20b3 553d 9507 a5bd 0ffb 16be
00000170: b097 12bc b962 bcbd c122 383d 744c b8bd
00000180: 6714 e3bc 7b13 bdbc 622a 47bd 816f 4c3d
00000190: ae95 2dbd 8263 7ebd 9446 3fbd 927c c3bd
000001a0: b69f c7bd 3229 993a 2667 e23c 2eae a63e
000001b0: 3496 47bd 7efc 873d 4348 8cbc e368 1fbe
000001c0: b333 193d 8f6d 383e 8c9f 2b3e 7a1a 2ebc
000001d0: ecb0 363d a757 febd 7b77 3bbe 6972 92bd
000001e0: 26ba 1b3d 651c 25bd c62b 8f3d 543e 16be
000001f0: 993d 85bd 5195 0bbe 3ae7 d9bc f518 89bd
00000200: 4382 1abe 87d7 3cbd b1e4 ad3c 27f2 25bd
00000210: efa6 a53d 8601 e0bc 6ff8 003a 4b04 b7bd
00000220: fcf3 f2bd fb2c 35be 3f1a d3bc a430 673e
00000230: f746 e7bd 8d1e 1bbe ee72 a8bd 0463 ec3c
00000240: 8c2d acbd 4f35 dabd 1fa4 8ebd bd44 c7bc
00000250: 55dc eabc ef11 7dbb a4fa 5d3d b2f1 e7bd
00000260: f18d 5abd cd3b 183b ec67 12be fd62 483b
00000270: 2aca 8c3b 5e8f 23be d50b e3bd 87eb cabc
00000280: 25e0 cbbc ca5a b0bc 64d9 d13c cece 0abe
00000290: 4298 4d3c 88d0 58be 242e 4abe f929 2dbd
000002a0: 4994 30be 958b 0dbe 2f1a dbbd 77b7 2bbe
000002b0: 2768 0cbe aa79 9fbd 791f e2bc b985 b6bd
000002c0: 5fd0 a23a c53a 7abe 0012 3abe 6f07 12ba
000002d0: 9409 10be c3ec 2fbd 9c9a 32be 1a66 2dbc
000002e0: a6ec b83d 02a6 ec3c 6444 b0bd fd9b 4a3c
000002f0: 34c3 71bd ac5e 183d 85c1 86bd 3637 d1bd
00000300: 73a6 85bd ca32 fcbd 7a82 7ebd fa2b a8bc
00000310: 0871 05be df57 38be e20c 123e 7381 9ebd
00000320: f4ca 2bbe e0db 2fbc d83f 533e 00b2 5bbd
00000330: d1f3 eebd 3f22 cc3d 08e7 4abe 280c 15be
00000340: fa2d 793d 43ce 47bd b21f abbd 8c7c ae3d
00000350: 2449 dbbd b603 1ebe af99 07bd 89c3 99bd
00000360: 1881 f3bd 5ab8 0ebe ca06 73bd 410e 8fbd
00000370: 95a2 7cbe 132d a4bd f4d9 693d 94bc 66be
00000380: fbd2 783b 319e 863c 8228 003e dbc9 4abd
00000390: 4bdd b7bd 875a 0fbe 3e61 c23d 796f 663b
000003a0: d262 1cbe 1118 c33d a22e 52bd ad4a d7bb
000003b0: f581 dabd 9952 5ebe 39a6 15be d08f 813c
000003c0: 3f0f a4bc 1e08 64bd 0f6b 09be a32c a2bd
000003d0: a52a 52bd 2a8d 3ebd bc7e 80bb 5986 5f3d
000003e0: d094 5dbb 5fb3 a6bd a618 3bbe 6a32 8ebd
000003f0: 396c 1bbe 63a7 f9bc bffc 5dbe 98bc 84bd
