policies/29dof_stand.pt (torch, 885896 bytes, 8 tensors)

weight f4 [512, 98]
-0.0962306 0.13388939 0.050368078 -0.085565805 0.24286029 0.03857636 -0.005833545 0.06699499
-0.020274222 -0.20979576 -0.08227076 0.089580074 0.1379631 0.08131976 -0.017419966 0.09827538
-0.14066824 0.16439472 0.035868116 0.20729181 0.15442728 -0.032998003 0.010042768 -0.09063405
0.09277356 0.023149025 0.13584961 0.0232731 -0.105597824 -0.1503743 0.14755629 0.12186936
-0.080112904 0.03481283 0.05826405 0.03046951 -0.13437736 -0.08060664 -0.2863526 0.020743081
0.034581114 0.118910015 0.11214817 0.0026991635 -0.36702693 -0.048557352 0.11530198 0.1746174
0.17771974 0.111142695 0.034522943 0.098313555 -0.42971632 0.14138523 0.06328798 -0.04121474
0.04044833 -0.028785557 -0.0972011 -0.09028768 0.07574864 -0.06253633 -0.039954647 -0.024424743
-0.02100427 -0.055900946 0.09049981 0.099937566 0.05912742 0.028369365 -0.049826525 0.08686921
-0.07147678 0.0053699366 -0.06310647 0.05453925 -0.03959575 -0.05675998 -0.033341095 -0.07563433
-0.026614085 0.1016914 -0.03412848 0.016210862 -0.083083965 0.06904873 -0.018196221 -0.07614663
0.077492625 -0.030848512 0.078590065 -0.060525086 -0.065704465 -0.0633606 0.013572473 -0.017700998
0.0031075412 0.07128594 -0.03744079 0.12414088 -0.07988934 -0.069762655 0.19271009 -0.058877133
0.08369348 0.091904975 -0.038695592 -0.1309268 -0.1481894 -0.049899075 -0.06379153 -0.0909386
0.003398276 -0.089002475 0.12506057 -0.08286552 -0.10651728 -0.15670282 -0.12604561 -0.060677927
0.1396406 0.13118042 -0.016847428 0.08429331 -0.094877854 -0.090082064 -0.058460474 -0.0035686882
-0.03427117 -0.033561315 0.02989544 0.09082498 0.10071753 -0.17616487 0.050483026 -0.035544902
-0.008533253 -0.2408734 0.04047741 -0.049767077 -0.09653986 0.03693088 -0.055177376 -0.22466417
0.18665308 0.005906267 -0.031262532 -0.081976585 0.07477179 0.09560453 0.1289081 -0.09160628
-0.029818095 -0.035847202 0.09096068 0.089857854 -0.02035683 -0.0891182 0.047530394 0.05331267
0.02485908 -0.090391405 0.0143789975 -0.03775637 -0.08241743 -0.034191556 0.08407937 0.014681588
-0.08502193 0.04984209 0.059531953 0.10950713 0.038241945 0.0021430063 0.06588605 0.06264219
0.05265391 -0.086778075 -0.015845193 0.065269925 0.080582745 0.06709703 -0.046144105 -0.012317424
-0.049351674 -0.060801983 0.07046602 -0.06978737 -0.0336725 0.01931513 -0.047341064 0.008545012
-0.01267895 0.033294853 -0.06138387 0.015236542 -0.19783318 0.16792431 0.14897417 0.16509634
0.29366758 -0.069836706 -0.08576585 -0.093266495 -0.041297827 -0.056881055 -0.011031187 0.007279685
-0.088944726 -0.06647176 -0.020950798 0.043798648 -0.013686517 0.14433883 -0.07966003 0.00092286564
0.15477581 0.13827258 0.06537058 0.12562376 0.07646778 0.033170164 0.08045897 -0.00030852074
0.026583776 0.09578516 0.13963497 0.028353492 -0.063982494 -0.0037428432 0.08146876 0.15010831
-0.2683887 -0.06272516 0.2712175 -0.24079926 0.10219155 0.016295016 -0.07662231 0.015145726
0.2951917 -0.072999686 0.101649195 0.027529307 0.28648067 0.12534593 -0.031259753 0.10975495
0.03840981 -0.009386149 -0.03164844 -0.020130923 -0.08596538 -0.024615087 0.01435271 0.06692603
00000000: 8c14 c5bd 4d1a 093e c24e 4e3d 203d afbd
00000010: 5eb0 783e 3f02 1e3d 5227 bfbb ab34 893d
00000020: 2016 a6bc b3d4 56be 927d a8bd c275 b73d
00000030: 3346 0d3e f98a a63d 51b4 8ebc 9a44 c93d
00000040: 560b 10be 1757 283e 72ea 123d 4e44 543e
00000050: 2f22 1e3e ea28 07bd 6c8a 243c 589e b9bd
00000060: 1000 be3d 06a3 bd3c 291c 0b3e 3aa7 be3c
00000070: ac43 d8bd b8fb 19be ff18 173e a596 f93d
00000080: 3c12 a4bd e697 0e3d 49a6 6e3d 329b f93c
00000090: 389a 09be 1815 a5bd cf9c 92be 65ed a93c
000000a0: eda4 0d3d 1887 f33d f1ad e53d 73e4 303b
000000b0: f4ea bbbe 13e4 46bd 7223 ec3d e7ce 323e
000000c0: 2afc 353e c89e e33d ee67 0d3d 9e58 c93d
000000d0: c703 dcbe 4ac7 103e 219d 813d cad0 28bd
000000e0: 26ad 253d b0cf ebbc 5f11 c7bd bfe8 b8bd
000000f0: 1a22 9b3d 0c13 80bd 7ca7 23bd 6616 c8bc
00000100: 2611 acbc 64f8 64bd f757 b93d 11ac cc3d
00000110: 982f 723d df66 e83c e616 4cbd 7ce8 b13d
00000120: 6b62 92bd 4bf6 af3b f73d 81bd 8c64 5f3d
00000130: 272f 22bd 277d 68bd ac90 08bd 2ce6 9abd
00000140: c805 dabc 9543 d03d 4eca 0bbd a4cc 843c
00000150: ed27 aabd 6c69 8d3d 3e10 95bc c4f2 9bbd
00000160: 74b4 9e3d 05b6 fcbc d4f3 a03d 27e9 77bd
00000170: 1090 86bd 34c3 81bd 145f 5e3c af01 91bc
00000180: e4a7 4b3b 5dfe 913d 845b 19bd 933d fe3d
00000190: 069d a3bd b9df 8ebd cb55 453e 2629 71bd
000001a0: 7d67 ab3d ad38 bc3d 457f 1ebd ad11 06be
000001b0: f6be 17be f962 4cbd 22a5 82bd 043e babd
000001c0: 9cb5 5e3b ee46 b6bd e10f 003e 66b5 a9bd
000001d0: bb25 dabd b476 20be 1a12 01be 6b89 78bd
000001e0: f2fd 0e3e 2954 063e 9e03 8abc f9a1 ac3d
000001f0: 524f c2bd f27c b8bd 4074 6fbd a7e0 69bb
00000200: ed5f 0cbd 9777 09bd 48e7 f43c 7202 ba3d
00000210: fe44 ce3d 9064 34be 4ac7 4e3d 8897 11bd
00000220: 0fcf 0bbc 84a7 76be a4cb 253d 90d8 4bbd
00000230: b1b6 c5bd d644 173d ac01 62bd 5d0e 66be
00000240: fc21 3f3e 5c89 c13b 240d 00bd 57e3 a7bd
00000250: f421 993d 4fcc c33d 7c00 043e 139c bbbd
00000260: 1445 f4bc 84d4 12bd 9849 ba3d 6507 b83d
00000270: 5ec3 a6bc 9a83 b6bd 3baf 423d 635e 5a3d
00000280: 45a5 cb3c 211f b9bd e395 6b3c 6ca6 1abd
00000290: 78ca a8bd 720c 0cbd ce31 ac3d 0b8b 703c
000002a0: fa1f aebd 3827 4c3d c7d7 733d 4645 e03d
000002b0: 96a3 1c3d ae71 0c3b 44ef 863d 8c4a 803d
000002c0: a0ab 573d b4b8 b1bd c7cd 81bc 3dac 853d
000002d0: 9108 a53d 2b6a 893d 9a01 3dbd 05cf 49bc
000002e0: fb24 4abd 800b 79bd 7d50 903d aeec 8ebd
000002f0: 2dec 09bd c33a 9e3c b4e8 41bd 6100 0c3c
00000300: 5fbb 4fbc 2f60 083d a76d 7bbd b0a2 793c
00000310: c894 4abe 5af4 2b3e af8c 183e 040f 293e
00000320: 995b 963e 8c06 8fbd 02a6 afbd 8102 bfbd
00000330: e927 29bd 1cfc 68bd 27bc 34bc 6d8a ee3b
00000340: a728 b6bd 5922 88bd 02a1 abbc 3666 333d
00000350: 6a3d 60bc 8fcd 133e cc24 a3bd 77ec 713a
00000360: 8d7d 1e3e 5497 0d3e 03e1 853d 84a3 003e
00000370: 249b 9c3d 70dd 073d acc7 a43d f4c0 a1b9
00000380: 38c6 d93c 032b c43d 78fc 0e3e 9545 e83c
00000390: 4109 83bd 7d4a 75bb 18d9 a63d feb5 193e
000003a0: 3e6a 89be 0c76 80bd 05dd 8a3e 1594 76be
000003b0: ce49 d13d 207d 853c 28ec 9cbd c725 783c
000003c0: 5e23 973e dc80 95bd 742d d03d 2485 e13c
000003d0: 98ad 923e af5a 003e 3a0a 00bd 34c7 e03d
000003e0: 9b53 1d3d 5dc8 19bc cba1 01bd 9be9 a4bc
000003f0: 9e0e b0bd 94a5 c9bc a127 6b3c 8410 893d

bias f4 [512]
-0.1269117 0.12186716 -0.07614474 0.095350556 -0.03643013 0.05293455 -0.011611464 0.16344486
0.032874003 -0.044665117 0.15351033 -0.12871766 0.039564982 0.047776442 -0.11579875 -0.11989664
-0.039294496 -0.038213007 0.017468179 -0.07475667 0.11314142 0.043281727 0.1216712 0.08235217
-0.00074710156 -0.017808042 -0.06306215 -0.0033586298 0.058958504 -0.009970393 0.037715323 -0.0062014014
0.1537127 -0.097164564 -0.089805245 -0.039649602 -0.05411856 0.13874188 0.11028075 -0.037935365
-0.006947929 0.17015621 -0.08172992 -0.00044989365 0.09840062 0.015252357 0.04764403 0.07151676
0.073747024 -0.14708087 -0.044493254 0.0572521 -0.120591596 -0.102776006 0.07640631 -0.02912189
0.036507018 0.10698304 0.09074987 -0.1106455 0.093318656 0.0801926 0.002845559 -0.09008258
-0.07493857 0.04524411 0.03188306 -0.12946422 0.06423588 -0.054448593 -0.10232347 0.07777762
-0.049726572 -0.05672265 -0.029654574 -0.020450715 0.10409338 -0.011728362 -0.0355839 0.1453233
0.11784323 0.06840316 -0.11400117 0.029259825 0.02382014 0.12127464 0.065419376 0.045193758
0.12968484 0.0794031 -0.12330287 -0.12960887 -0.068402156 -0.006114052 0.010053652 0.070325166
-0.15654118 0.042196825 -0.12237079 0.14159393 0.052927837 0.13519347 0.0151455095 -0.10493816
-0.0075717196 0.045612734 0.030475033 0.03597955 0.13410415 -0.014357166 0.12680335 0.033858355
-0.114282355 -0.10626264 -0.028320752 0.051379386 0.14134409 0.10587436 -0.03478283 0.1379432
0.027749151 0.0086467825 -0.067113884 -0.08595569 0.11353942 0.09089375 -0.06928251 -0.12738553
0.07371507 -0.13264473 0.082919426 0.07498471 0.07414192 -0.13423447 0.0029057707 -0.04144182
0.10565648 0.1484202 0.04955687 -0.019000363 0.11320174 -0.05062587 -0.05084397 -0.11349087
0.044859793 0.13911381 0.13481231 0.08791434 0.10219152 -0.12059467 0.14961648 -0.032738607
-0.08045231 0.10039695 0.03644043 0.0022786635 -0.092438705 0.0016523874 -0.1057068 -0.07859624
0.15563485 0.067836784 -0.13462114 -0.1202042 -0.06647992 -0.052486915 -0.113610774 0.11952936
0.0485065 0.1562162 0.08031471 0.10584478 -0.087978266 0.05121828 -0.082470424 0.031251553
0.11709472 0.12642543 -0.09861543 -0.034601785 0.029921511 0.05633515 -0.018089551 0.09121779
-0.06813744 -0.018648433 -0.10051171 -0.05323887 -0.09120997 0.105276264 -0.0055553094 0.084106
-0.021934144 0.03704544 0.08442952 0.09456414 0.14983878 -0.08896332 0.16844611 -0.10242696
0.010705961 0.015452726 -0.1345625 0.077760085 -0.09627399 0.11411199 -0.022086179 -0.0704778
0.12020012 0.03575567 -0.111411996 0.03185193 -0.0035349533 -0.04596494 0.019149194 -0.057479937
-0.0037760201 0.1407314 -0.02148847 -0.12412424 0.13047735 -0.12442642 0.048300214 0.043335225
0.15491559 -0.11145076 -0.051449526 0.09718609 -0.021055777 -0.080148496 0.003535049 0.066921405
-0.062282618 0.15089282 -0.14777274 0.06483828 0.13040498 -0.03665415 -0.02965882 -0.08875838
-0.105694756 0.029756168 -0.12487601 0.16257401 0.14253095 -0.042263743 0.075687826 -0.07634429
0.15147161 0.014301512 0.047655348 0.001527337 0.0150516825 -0.120133676 0.03829429 0.09261014
00000000: 24f5 01be 7d95 f93d c6f1 9bbd 2747 c33d
00000010: c337 15bd e6d1 583d 033e 3ebc 175e 273e
00000020: e4a6 063d c5f2 36bd d031 1d3e 90ce 03be
00000030: e40e 223d 3bb1 433d e527 edbd 5f8c f5bd
00000040: 44f3 20bd 3e85 1cbd 6d19 8f3c 061a 99bd
00000050: b0b6 e73d 2e48 313d c02e f93d 41a8 a83d
00000060: 23d9 43ba 2ce2 91bc ba26 81bd 751c 5cbb
00000070: 797e 713d dc5a 23bc 627b 1a3d 2035 cbbb
00000080: dd66 1d3e 37fe c6bd d0eb b7bd 9f67 22bd
00000090: 6cab 5dbd 5a12 0e3e e0da e13d 1d62 1bbd
000000a0: 74ab e3bb 6e3d 2e3e 0462 a7bd b4df ebb9
000000b0: 4486 c93d 06e5 793c 6326 433d 6177 923d
000000c0: ae08 973d 5e9c 16be 8f3e 36bd 2e81 6a3d
000000d0: baf8 f6bd 3a7c d2bd e97a 9c3d 0891 eebc
000000e0: 6288 153d ed19 db3d 11db b93d 1c9a e2bd
000000f0: da1d bf3d 053c a43d 8f7c 3a3b 377d b8bd
00000100: 6579 99bd e351 393d d097 023d 4592 04be
00000110: 1a8e 833d 7d05 5fbd f88e d1bd df49 9f3d
00000120: 17ae 4bbd 0256 68bd 26ee f2bc 4288 a7bc
00000130: e92e d53d 5128 40bc 6cc0 11bd a2cf 143e
00000140: cb57 f13d f516 8c3d 7279 e9bd 4db2 ef3c
00000150: 7422 c33c d75e f83d 98fa 853d 171d 393d
00000160: 1acc 043e 189e a23d 3786 fcbd 30b8 04be
00000170: 6e16 8cbd 6358 c8bb 13b8 243c a406 903d
00000180: 554c 20be 94d6 2c3d 899d fabd 00fe 103e
00000190: dcca 583d 2870 0a3e df24 783c d1e9 d6bd
000001a0: 301c f8bb 6bd4 3a3d c7a6 f93c 4b5f 133d
000001b0: 9952 093e 523a 6bbc bdd8 013e 0faf 0a3d
000001c0: de0c eabd 3aa0 d9bd ec00 e8bc 3173 523d
000001d0: 81bc 103e a8d4 d83d 7178 0ebd fb40 0d3e
000001e0: 3052 e33c 3cab 0d3c 0173 89bd 8909 b0bd
000001f0: 5b87 e83d 8126 ba3d fde3 8dbd 5a71 02be
00000200: edf7 963d 05d4 07be a9d1 a93d 9591 993d
00000210: b8d7 973d c374 09be be6e 3e3b e6be 29bd
00000220: 6d62 d83d 77fb 173e 25fc 4a3d a6a6 9bbc
00000230: 50d6 e73d 125d 4fbd c441 50bd e76d e8bd
00000240: e7be 373d da73 0e3e 3d0c 0a3e 6f0c b43d
00000250: ca49 d13d 57fa f6bd 1035 193e eb18 06bd
00000260: 2ec4 a4bd eb9c cd3d 8f42 153d a155 153b
00000270: 8150 bdbd ec94 d83a cf7c d8bd 11f7 a0bd
00000280: be5e 1f3e 03ee 8a3d 20da 09be 9f2d f6bd
00000290: a026 88bd 85fc 56bd c4ac e8bd cfcb f43d
000002a0: c0ae 463d 24f7 1f3e 0a7c a43d 26c5 d83d
000002b0: f32d b4bd 42ca 513d 41e6 a8bd a101 003d
000002c0: 5bcf ef3d ab75 013e e3f6 c9bd 9aba 0dbd
000002d0: f51d f53c b0bf 663d 8a30 94bc 65d0 ba3d
000002e0: a48b 8bbd 99c4 98bc 15d9 cdbd 0011 5abd
000002f0: 4bcc babd 159b d73d 5009 b6bb c43f ac3d
00000300: 3caf b3bc f6bc 173d 62e9 ac3d d8aa c13d
00000310: 566f 193e 6732 b6bd 237d 2c3e 3ac5 d1bd
00000320: 0e68 2f3c 6e2d 7d3c c1ca 09be ae40 9f3d
00000330: 4c2b c5bd 8cb3 e93d 13ee b4bc aa56 90bd
00000340: 7b2b f63d 8a74 123d f92b e4bd 2b77 023d
00000350: adaa 67bb bc45 3cbd c5de 9c3c 1570 6bbd
00000360: 1b77 77bb e41b 103e 9608 b0bc d934 febd
00000370: db9b 053e 47d3 febd 72d6 453d 4780 313d
00000380: 31a2 1e3e 4c40 e4bd bdbc 52bd 8009 c73d
00000390: 2a7d acbc e524 a4bd 48ac 673b 170e 893d
000003a0: 0f1c 7fbd a683 1a3e bd51 17be efc9 843d
000003b0: e288 053e a922 16bd 0ef7 f2bc f4c6 b5bd
000003c0: 7e76 d8bd 35c3 f33c febe ffbd cd79 263e
000003d0: a2f3 113e bf1c 2dbd 3802 9b3d 655a 9cbd
000003e0: 601b 1b3e e450 6a3c 4132 433d ed30 c83a
000003f0: 559b 763c a508 f6bd 79da 1c3d 63aa bd3d

weight f4 [256, 512]
-0.032350007 0.047392014 -0.01538675 -0.003109394 -0.022082614 0.02551827 0.007639699 0.029174434
0.0075661154 0.010522964 0.05410534 -0.007596355 -0.025356691 0.057607558 -0.025077349 -0.025954066
-0.03574975 0.050858613 0.061886184 -0.10206628 0.05835642 0.052138165 0.062969975 0.040190764
-0.017817574 0.03807824 -0.025006887 0.016608896 -0.007578398 0.002592956 -0.013325669 0.01083792
-0.027452646 -0.014632966 -0.08708899 0.028553158 -0.012967861 0.023281945 0.032957315 -0.02040419
0.034047477 0.029098736 -0.04976163 -0.053263772 0.026650758 -0.01075587 0.008282345 0.029100772
0.012717167 -0.03438345 -0.008144808 0.04131488 -0.021548685 -0.05865239 0.028160153 -0.010759434
0.03626203 0.08518189 0.052558 0.062727585 0.034154814 0.09263506 0.04387065 -0.047264367
-0.011235778 -0.020571979 -0.034336235 -0.041609492 -0.07070025 0.016564382 -0.04665331 0.009955555
-0.03107069 0.037603907 -0.037452213 0.0024627545 0.028960438 -0.045116138 0.051005814 0.06401036
0.07905137 -0.003614843 -0.048426747 0.039413344 0.034480292 0.07807915 0.032653667 0.0014230376
0.00058938167 -0.048185058 -0.016906785 -0.012194182 -0.01832906 0.036498237 -0.0013994084 -0.03091907
-0.044987984 0.016308194 -0.0026608994 -0.012053563 0.060701206 0.048045963 0.026710719 0.010384088
0.028680842 0.03642208 -0.015628932 -0.017923053 0.04134241 0.0190682 0.05412209 -0.013191615
-0.01852317 -0.01267751 0.05018824 0.06227599 -0.0087083215 -0.031778064 -0.024713878 0.07425922
-0.017963646 -0.017728088 -0.034202386 0.010111565 -0.00743497 -0.008764051 -0.005661914 -0.050999574
0.037116867 -0.018180624 0.013924328 0.0005408884 0.001600317 -0.010293835 0.011357822 0.040151093
-0.02692486 0.04514828 0.0043764445 0.008039472 -0.012959977 -0.040334098 0.01596435 0.0005252548
0.06829277 0.042722646 0.06385063 0.045852736 0.043446574 -0.042590756 0.02545423 -0.05124398
-0.0046216557 5.6175537e-05 -0.046575233 -0.020264912 -0.032977536 0.05420582 0.030709142 0.0026167918
0.07749108 -0.006840824 -0.031454258 0.016087528 -0.05296209 -0.067511216 0.03618252 -0.008762346
0.008088752 0.07722838 0.03769589 0.024976356 -0.029697627 -0.010301567 -0.009956731 0.0012438688
0.03126353 -0.029188292 -0.02950524 -0.0029561485 0.051045 0.016438589 0.009044179 0.04151113
-0.043619152 0.032762628 -0.064268455 0.0026895923 -0.0034998981 0.059720464 0.07149331 0.028820448
0.016341925 -0.035995517 0.06683621 0.008009986 -0.0023279602 -0.013734597 0.08374732 -0.09007247
0.013647894 -0.0065093664 -0.03942079 -0.011983199 -0.03316777 0.055273935 -0.059146266 0.030662153
0.017125376 -0.015021591 -0.07818254 0.058325667 -0.06258502 -0.0005203849 0.037234105 -0.03692879
-0.006307215 0.008117845 -0.023508975 0.0018704291 -0.0048107207 -0.08982152 -0.091811195 0.027052473
-0.010106016 0.0060243425 -0.0005005811 0.011988594 -0.084538214 -0.06358313 0.009623621 0.0475056
-0.030212136 0.022630803 -0.034570917 0.033050783 -0.017082546 0.030246561 -0.05962166 -0.0034834284
-0.012095471 -0.0116300555 -0.031104337 0.002087791 -0.02498972 -0.030606238 0.0022264477 -0.02750544
0.034282714 -0.014060639 0.04401425 -0.046866927 0.0077601173 -0.06364052 -0.008290552 0.024217943
00000000: 7181 04bd 211e 423d b518 7cbc fac6 4bbb
00000010: 99e6 b4bc b10b d13c 7156 fa3b 39ff ee3c
00000020: 2ded f73b 8368 2c3c 909d 5d3d d8ea f8bb
00000030: d6b8 cfbc e7f5 6b3d 036f cdbc 9f9d d4bc
00000040: 546e 12bd 1f51 503d 5e7c 7d3d 2008 d1bd
00000050: 2407 6f3d d48e 553d 67f6 803d 129f 243d
00000060: 29f6 91bc eef7 1b3d 3edb ccbc 610f 883c
00000070: 3654 f8bb 95ee 293b e853 5abc 8891 313c
00000080: 5fe4 e0bc 1cbf 6fbc b65b b2bd 50e8 e93c
00000090: 2777 54bc c7b9 be3c 40fe 063d b026 a7bc
000000a0: 5e75 0b3d 7960 ee3c dad2 4bbd 1d2b 5abd
000000b0: b152 da3c 6339 30bc acb2 073c be64 ee3c
000000c0: aa5b 503c a9d5 0cbd cd71 05bc cb39 293d
000000d0: de86 b0bc 7d3d 70bd 1fb0 e63c 5648 30bc
000000e0: 7f87 143d d873 ae3d 0f47 573d 5277 803d
000000f0: ebe5 0b3d 73b7 bd3d b6b1 333d 4898 41bd
00000100: 4516 38bc 9186 a8bc 27a4 0cbd b76e 2abd
00000110: 4bcb 90bd 07b2 873c 8b17 3fbd a01c 233c
00000120: f687 febc 8e06 1a3d 7e67 19bd 2a66 213b
00000130: 713e ed3c b3cb 38bd 79eb 503d dd17 833d
00000140: afe5 a13d 00e7 6cbb 205b 46bd e36f 213d
00000150: 353b 0d3d f6e7 9f3d dabf 053d 3885 ba3a
00000160: bc80 1a3a b25d 45bd 1980 8abc 1bca 47bc
00000170: d326 96bc 2d7f 153d 5b6c b7ba fd49 fdbc
00000180: 5245 38bd c398 853c 7c62 2ebb 4f7c 45bc
00000190: d4a1 783d d8cb 443d 70d0 da3c 0622 2a3c
000001a0: 16f4 ea3c 522f 153d 3f08 80bc 5ed3 92bc
000001b0: a956 293d ea34 9c3c 20af 5d3d a521 58bc
000001c0: e7bd 97bc 55b5 4fbc 2f92 4d3d 1c15 7f3d
000001d0: 59ad 0ebc b729 02bd c274 cabc 3815 983d
000001e0: 7f28 93bc 7f3a 91bc cd17 0cbd faaa 253c
000001f0: 0ca1 f3bb 1897 0fbc 9487 b9bb eee4 50bd
00000200: db07 183d 88ef 94bc dd22 643c 68ca 0d3a
00000210: bac1 d13a 79a7 28bc 2916 3a3c 7975 243d
00000220: 8691 dcbc 67ed 383d 4768 8f3b fdb7 033c
00000230: 1556 54bc 5e35 25bd abc7 823c 41b1 093a
00000240: 14dd 8b3d f1fd 2e3d 1ec4 823d 14d0 3b3d
00000250: 09f5 313d a573 2ebd 6485 d03c 35e5 51bd
00000260: 4271 97bb 069e 6b38 acc5 3ebd 9a02 a6bc
00000270: 7413 07bd ec06 5e3d bd91 fb3c 7b7e 2b3b
00000280: a5b3 9e3d fe28 e0bb 2ed6 00bd fec9 833c
00000290: c7ee 58bd 5243 8abd 1f34 143d f18f 0fbc
000002a0: af86 043c ea29 9e3d 0167 1a3d 379b cc3c
000002b0: 7048 f3bc e7c7 28bc 8f21 23bc 5009 a33a
000002c0: 300e 003d 491c efbc f9b4 f1bc f1bb 41bb
000002d0: 9014 513d 38aa 863c 092e 143c 9307 2a3d
000002e0: ffa9 32bd 1b32 063d 2e9f 83bd df43 303b
000002f0: 8c5e 65bb 729d 743d 166b 923d dc18 ec3c
00000300: 80df 853c 0970 13bd 6ce1 883d 513c 033c
00000310: b190 18bb 1307 61bc b783 ab3d ea77 b8bd
00000320: 6b9b 5f3c 864c d5bb b277 21bd 2e55 44bc
00000330: edda 07bd ec66 623d 5b43 72bd 322f fb3c
00000340: 844a 8c3c 1f1d 76bc 2b1e a0bd e5e6 6e3d
00000350: 932c 80bd 716a 08ba ca82 183d a542 17bd
00000360: c1ac cebb b600 053c e595 c0bc 3029 f53a
00000370: 40a3 9dbb 58f4 b7bd 8207 bcbd 269d dd3c
00000380: b493 25bc d967 c53b 6e39 03ba cf6b 443c
00000390: 5f22 adbd df37 82bd 64ac 1d3c 3b95 423d
000003a0: 717f f7bc 3c64 b93c 3c9a 0dbd 4260 073d
000003b0: b2f0 8bbc a3c7 f73c d735 74bd 3b4a 64bb
000003c0: 152c 46bc fd8b 3ebc 86ce febc 52d3 083b
000003d0: 3eb7 ccbc efb9 fabc 98e9 113b 1753 e1bc
000003e0: 086c 0c3d 985e 66bc 4948 343d 89f7 3fbd
000003f0: 9548 fe3b f655 82bd 18d5 07bc b564 c63c

bias f4 [256]
0.041718613 -0.07668552 0.02535871 0.02010699 0.08944961 0.08466165 -0.064508274 -0.0023759906
-0.13295823 0.024283577 -0.095747486 0.020979151 -0.07937789 -0.10631319 -0.0010678251 0.040616576
-0.0375276 0.052264 0.034589082 0.048017785 0.05622881 0.042501383 0.057828482 0.0703941
-0.013200134 -0.028113887 0.057200123 -0.02892091 -0.041610282 -0.05750735 0.061705366 -0.12163492
-0.0029863187 -0.03866386 0.03849596 -0.11786495 -0.10366045 0.03266947 0.015971001 -0.01906232
-0.11427839 -0.189273 0.01745796 -0.029384509 0.06751316 -0.06896279 -0.011137234 0.0128399385
0.011135651 -0.04321519 -0.0028329093 -0.055753686 -0.10826446 -0.07062717 -0.05290774 0.026326265
0.040676985 -0.0046326444 -0.06891107 -0.0073593594 -0.09594764 -0.09771764 0.040762115 0.04584654
0.001303939 -0.004977713 0.03666247 0.02752592 0.045541395 0.06195241 0.11413736 0.010728132
-0.004102704 -0.019790173 0.0053668437 -0.01892451 0.010646916 0.088742085 0.07912358 -0.016382063
0.005547323 -0.0105655445 0.03959148 -0.024391297 0.025346434 -0.06740594 -0.06319188 0.06281536
-0.013117342 0.02861518 0.033191875 -0.09546104 -0.014689424 -0.02504643 -0.036735088 0.05310764
-0.03279599 -0.05257645 0.075789414 -0.0028894178 -0.039672002 -0.068527035 0.043241847 0.008897556
0.0174645 0.008851105 -0.082712226 -0.059794527 -0.0013430358 0.032589648 0.008301955 0.018745605
0.059357 -0.02057845 -0.018401274 0.039181154 -0.01989081 -0.006763402 0.004664335 0.004357618
0.029926183 -0.04793308 0.03568895 -0.0051651304 0.08914718 -0.032832738 0.05499647 0.024083273
0.027096545 -0.015136625 -0.02852751 -0.10791937 0.048004717 0.044973187 0.020453252 0.00055562373
0.024338307 -0.11354276 -0.031684037 0.006175484 0.055202197 0.020313874 0.0134219285 0.04288646
-0.00418009 0.06055769 0.08163757 0.010946965 -0.14790949 0.017097227 0.03164671 0.02037539
-0.06580782 -0.032676544 -0.073841475 -0.07141149 0.039150633 0.055956006 0.039206777 -0.035987757
0.013841226 -0.044569116 0.08111819 0.045571283 -0.005946048 -0.03582528 0.042729497 -0.02080075
-0.100067034 0.007071252 -0.0041115894 0.07410969 -0.012361877 -0.030143036 0.0469818 0.040324744
-0.050509125 -0.01449215 0.004779579 -0.11945855 -0.028248768 -0.027038151 -0.029207157 -0.044553425
0.016451811 0.006857491 -0.059296377 0.021972075 -0.03401277 0.025099 0.032668225 -0.010578165
0.006456166 0.016275132 -0.025039153 0.034905642 -0.01892548 0.075322755 0.06166926 0.0054635294
0.038113795 -0.052632336 -0.01612932 -0.080427505 0.06758167 0.050278816 0.03946443 0.03958956
0.035670154 -0.04772373 0.010974393 0.048801497 0.06628881 -0.037129033 -0.04610387 0.042390414
-0.002744309 -0.059632428 0.021813111 0.023159236 0.08170206 0.0045846216 0.057946663 0.009561813
-0.0074087195 0.048266064 0.024208093 0.02774143 0.051593907 -0.094956174 -0.014214891 0.066940166
0.06497606 -0.036768325 0.05856894 -0.0005360623 -0.046747133 0.04321081 -0.049207415 0.014005384
0.050834656 -0.005794854 0.00010673943 0.033571117 -0.07548923 0.043449745 -0.024456013 0.041591827
-0.028657624 0.015216444 -0.03857247 -0.01589743 0.061575964 -0.020589665 -0.062298454 0.08366855
00000000: 23e1 2a3d 4c0d 9dbd 12bd cf3c 6ab7 a43c
00000010: 5b31 b73d 1663 ad3d ea1c 84bd 82b6 1bbb
00000020: 3426 08be 5aee c63c 4217 c4bd 78dc ab3c
00000030: e090 a2bd bbba d9bd 44f6 8bba 915d 263d
00000040: 8ab6 19bd c712 563d 48ad 0d3d 4cae 443d
00000050: 2e50 663d ee15 2e3d 8fdd 6c3d c82a 903d
00000060: 6045 58bc 184f e6bc ad4a 6a3d 8beb ecbc
00000070: 8b6f 2abd d48c 6bbd c4be 7c3d bb1b f9bd
00000080: 1db6 43bb ff5d 1ebd f1ad 1d3d 2e63 f1bd
00000090: ee4b d4bd 6cd0 053d 9ed5 823c 9528 9cbc
000000a0: ca0a eabd c8d0 41be ff03 8f3c c8b7 f0bc
000000b0: 5744 8a3d 5d3c 8dbd f278 36bc 9b5e 523c
000000c0: 4e72 363c 6902 31bd 55a8 39bb fa5d 64bd
000000d0: c2b9 ddbd faa4 90bd c9b5 58bd 2eaa d73c
000000e0: e99c 263d 70cd 97bb 3f21 8dbd c826 f1bb
000000f0: 3280 c4bd 3020 c8bd 2df6 263d 95c9 3b3d
00000100: efe8 aa3a 151c a3bb 632b 163d 0a7e e13c
00000110: 9d89 3a3d cfc1 7d3d d9c0 e93d 0cc5 2f3c
00000120: fa6f 86bb 001f a2bc 59dc af3b 9307 9bbc
00000130: 6770 2e3c 69be b53d 8b0b a23d ad33 86bc
00000140: 51c6 b53b 1b1b 2dbc ad2a 223d 42d0 c7bc
00000150: 53a3 cf3c 200c 8abd bf6a 81bd 57a5 803d
00000160: 1fea 56bc 626a ea3c 34f4 073d 1481 c3bd
00000170: e9ab 70bc 2c2e cdbc 8877 16bd 6687 593d
00000180: 1755 06bd 675a 57bd 7b37 9b3d 635c 3dbb
00000190: 1c7f 22bd e757 8cbd 5d1e 313d 0ec7 113c
000001a0: b611 8f3c 3a04 113c 0765 a9bd 1beb 74bd
000001b0: ce08 b0ba b97c 053d ec04 083c 6290 993c
000001c0: 5320 733d 2394 a8bc 45be 96bc 6b7c 203d
000001d0: 0df2 a2bc 879f ddbb 47d7 983b 59ca 8e3b
000001e0: c127 f53c 7a55 44bd 942e 123d 4140 a9bb
000001f0: cc92 b63d 9f7b 06bd fb43 613d 494a c53c
00000200: 93f9 dd3c 9bff 77bc 86b2 e9bc d504 ddbd
00000210: 98a0 443d ce35 383d 948d a73c 47a7 113a
00000220: 2161 c73c 1b89 e8bd 1fc7 01bd b75b ca3b
00000230: b31b 623d 4869 a63c a6e7 5b3c b6a9 2f3d
00000240: 23f9 88bb 570b 783d 9931 a73d e65a 333c
00000250: 9675 17be 7c0f 8c3c fb9f 013d 4aea a63c
00000260: 40c6 86bd d7d7 05bd 333a 97bd 3040 92bd
00000270: 6a5c 203d 2032 653d 4997 203d e667 13bd
00000280: 4fc6 623c 1b8e 36bd 4b21 a63d f4a8 3a3d
00000290: 11d7 c2bb 87bd 12bd 2005 2f3d 5666 aabc
000002a0: f2ef ccbd f6b5 e73b 83ba 86bb d2c6 973d
000002b0: 7889 4abc 87ee f6bc fd6f 403d 8f2b 253d
000002c0: a8e2 4ebd 7c70 6dbc 049e 9c3b afa6 f4bd
000002d0: f669 e7bc 1d7f ddbc d943 efbc a77d 36bd
000002e0: f3c5 863c ceb4 e03b c2e0 72bd c8fe b33c
000002f0: f950 0bbd 6b9c cd3c 1ecf 053d 0a50 2dbc
00000300: 3f8e d33b 6d53 853c e91e cdbc 38f9 0e3d
00000310: 9c09 9bbc d142 9a3d e898 7c3d 6807 b33b
00000320: 361d 1c3d 0195 57bd a321 84bc 2db7 a4bd
00000330: 4268 8a3d 29f1 4d3d 74a5 213d aa28 223d
00000340: de1a 123d f579 43bd f1cd 333c 14e4 473d
00000350: 6dc2 873d 9d14 18bd 69d7 3cbd 92a1 2d3d
00000360: ddd9 33bb 2241 74bd 69b1 b23c 70b8 bd3c
00000370: 6953 a73d 983a 963b 7b59 6d3d 27a9 1c3c
00000380: d8c4 f2bb a3b2 453d 0d50 c63c ff41 e33c
00000390: 2254 533d 6278 c2bd 93e5 68bc ed17 893d
000003a0: 2b12 853d 629a 16bd fce5 6f3d 8886 0cba
000003b0: ec79 3fbd d1fd 303d b78d 49bd d776 653c
000003c0: 0038 503d c2e2 bdbb 4cd9 df38 de81 093d
000003d0: 199a 9abd 5cf8 313d fa57 c8bc 315c 2a3d
000003e0: 65c3 eabc 644e 793c 2bfe 1dbd 543b 82bc
000003f0: 1437 7c3d a8ab a8bc aa2c 7fbd 6b5a ab3d

weight f4 [128, 256]
-0.012974275 5.912829e-05 0.08928223 0.07051259 -0.009588757 -0.062275782 0.06509066 -0.019537224
0.04408125 0.010454064 0.016534483 0.021403087 -0.058808055 0.014620897 -0.0212273 0.073861234
-0.10505492 -0.058409397 -0.075348526 -0.006500473 0.024703925 -0.061807316 -0.022534499 0.05830556
0.09749733 0.080920324 -0.045223553 0.15654624 -0.039652586 -0.03623453 -0.06565887 -0.05013394
0.031950362 0.061162416 -0.0848397 -0.00073634746 0.06623236 0.0058508716 0.00220341 0.091677986
-0.050241757 0.08266891 -0.039961513 0.06966898 -0.09533213 0.041998684 0.015409279 -0.06221279
-0.05657325 0.09915673 0.03199797 0.042950813 -0.011065785 -0.035589907 0.07920806 -0.015199104
0.044941887 0.034193102 0.045837864 0.12975773 0.013779736 0.06356481 -0.008363494 -0.06770239
-0.05190772 -0.020159453 0.000448341 0.0046987617 -0.028702453 0.06033393 0.051583365 0.022328274
0.02569464 0.029670795 0.011727547 -0.047609217 -0.048864294 -0.009117202 -0.04567448 -0.0019947032
0.058840316 0.12220013 -0.11833643 0.16218825 -0.020005044 0.0514335 0.051388927 0.034383073
0.028565852 -0.041496515 -0.023050759 0.04025499 0.041433547 -0.08392287 -0.01549071 0.06775842
-0.07565593 -0.016033871 0.034171093 0.095509455 -0.024460683 -0.02918319 -0.072477154 0.016390115
0.08089195 0.083774604 0.09536989 0.0013759378 0.03516652 -0.074391596 0.07589206 -0.07018182
-0.047812548 0.078338556 -0.0500316 -0.05263971 -0.01844599 0.019573119 0.040045626 -0.021886865
0.03330028 0.016148774 -0.027534017 -0.015954398 0.018889593 -0.062123995 -0.006357012 0.066258475
0.07461259 0.007278326 0.05407181 -1.4755548e-05 -0.088371225 -0.06868833 0.09919083 0.021097658
0.104720406 0.013960636 -0.06324421 0.02602957 0.050329395 0.016998552 0.022648273 0.06637232
0.08262464 0.041971378 -0.05775601 0.04124857 -0.030836044 -0.10725138 0.008730815 -0.021069793
0.044852465 -0.014507897 -0.032258887 0.123855665 0.06838408 -0.019668926 0.06093671 0.013801329
-0.043168668 -0.01881448 -0.10744004 0.0015571218 -0.06820081 -0.114186615 0.08877367 -0.035345178
0.04665009 0.031030282 0.040627018 0.0054961676 0.055937655 0.039881524 -0.04418287 -0.054836467
-0.05052914 -0.005710024 -0.08074655 0.008821259 0.055973057 -0.0267692 -0.0192652 -0.042394094
-0.029797178 0.057414103 0.022431785 0.04126859 0.016744178 0.006332184 0.07250159 -0.018672837
-0.015860904 -0.0070345914 0.025767498 0.012726456 0.069720976 -0.05089676 0.022190113 -0.007895187
-0.030195452 0.08734386 0.056761976 -0.054108426 -0.054529138 -0.083358675 0.06945803 0.044501003
0.06667644 0.10956104 -0.0047494615 0.007329522 0.12270953 -0.026562572 -0.023547925 -0.006917564
0.07719476 0.18107149 -0.06482712 -0.040348742 -0.025578467 -0.02594262 0.00873325 0.06529952
-0.06943185 -0.105868526 -0.07164857 -0.08037158 -0.034830004 -0.050308116 -0.02951806 -0.048504267
-0.005325408 0.09666252 0.009513502 -0.0089125065 -0.02137018 -0.08493862 -0.1001325 0.0036700952
0.08805798 0.091450825 -0.008888311 0.021248799 0.017101245 -0.05922677 -0.08003661 0.026467388
-0.010056525 -0.07844349 -0.01834054 0.09160666 0.08228308 -0.08450947 0.074341126 -0.10451468
00000000: 0e92 54bc 8500 7838 9ad9 b63d e868 903d
00000010: 291a 1dbc e414 7fbd 404e 853d 870c a0bc
00000020: 8a8e 343d 8647 2b3c 5373 873c 8755 af3c
00000030: b7e0 70bd 7d8c 6f3c e0e4 adbc 8f44 973d
00000040: 0927 d7bd b13e 6fbd 5450 9abd eb01 d5bb
00000050: e35f ca3c ab29 7dbd 459a b8bc d0d1 6e3d
00000060: aeac c73d 8eb9 a53d 553c 39bd a84d 203e
00000070: c06a 22bd a96a 14bd 2878 86bd 3f59 4dbd
00000080: 62de 023d 7185 7a3d 70c0 adbd 7107 41ba
00000090: d5a4 873d abb8 bf3b 1667 103b abc1 bb3d
000000a0: 4dca 4dbd 514e a93d afae 23bd 9cae 8e3d
000000b0: 7e3d c3bd d006 2c3d 3377 7c3c d7d2 7ebd
000000c0: 5ab9 67bd af12 cb3d 4e10 033d 31ed 2f3d
000000d0: 444d 35bc b9c6 11bd d637 a23d aa05 79bc
000000e0: fc14 383d 110e 0c3d 7cc0 3b3d 36df 043e
000000f0: 67c4 613c 442e 823d 0907 09bc 8da7 8abd
00000100: 309d 54bd 7025 a5bc 4f0f eb39 12f8 993b
00000110: 6821 ebbc b620 773d 1449 533d c9e9 b63c
00000120: 917d d23c 2b10 f33c e624 403c e201 43bd
00000130: ed25 48bd 5160 15bc 2a15 3bbd 91b9 02bb
00000140: 8b02 713d 1044 fa3d 5f5a f2bd ad14 263e
00000150: 9ee1 a3bc efab 523d 327d 523d 44d5 0c3d
00000160: ef02 ea3c 40f8 29bd f2d4 bcbc 6be2 243d
00000170: 39b6 293d c1df abbd bfcc 7dbc edc4 8a3d
00000180: 7ff1 9abd 7759 83bc fdf6 0b3d 769a c33d
00000190: c561 c8bc 9611 efbc e76e 94bd 9044 863c
000001a0: aeaa a53d 0592 ab3d 4a51 c33d d058 b43a
000001b0: c50a 103d 9f5a 98bd 4c6d 9b3d 7cbb 8fbd
000001c0: 17d7 43bd f76f a03d efed 4cbd bd9c 57bd
000001d0: 0b1c 97bc ce57 a03c e206 243d 154c b3bc
000001e0: e065 083d 6f4a 843c 058f e1bc ccb2 82bc
000001f0: 59be 9a3c bb75 7ebd 7b4e d0bb 86b2 873d
00000200: 7cce 983d 067f ee3b 677a 5d3d 998e 77b7
00000210: f9fb b4bd 78ac 8cbd 9024 cb3d ffd4 ac3c
00000220: a777 d63d 27bb 643c 2e86 81bd f73b d53c
00000230: 3226 4e3d 8c40 8b3c df88 b93c 36ee 873d
00000240: 1b37 a93d 2eea 2b3d 9191 6cbd 43f4 283d
00000250: df9b fcbc 9da6 dbbd b10b 0f3c 8f9a acbc
00000260: 38b7 373d 88b2 6dbc e521 04bd 0aa8 fd3d
00000270: f40c 8c3d ba20 a1bc c698 793d f81e 623c
00000280: a1d1 30bd d320 9abc 8609 dcbd 5618 cc3a
00000290: deac 8bbd acda e9bd f8ce b53d 1bc6 10bd
000002a0: 2a14 3f3d 3833 fe3c 8468 263d 3219 b43b
000002b0: e21e 653d cf5a 233d 19f9 34bd 349c 60bd
000002c0: a5f7 4ebd 271b bbbb 725e a5bd 0b87 103c
000002d0: 0144 653d 154b dbbc 0dd2 9dbc 6ea5 2dbd
000002e0: 3619 f4bc 0d2b 6b3d ddc2 b73c 4109 293d
000002f0: 162b 893c 367e cf3b b77b 943d c7f7 98bc
00000300: baee 81bc 6e82 e6bb 5c16 d33c a082 503c
00000310: dfc9 8e3d 1f79 50bd 0ac8 b53c d05a 01bc
00000320: 745c f7bc 56e1 b23d 3f7f 683d cca0 5dbd
00000330: f259 5fbd f4b7 aabd 0340 8e3d af46 363d
00000340: a88d 883d 8a61 e03d 5fa1 9bbb 7d2c f03b
00000350: 224f fb3d c099 d9bc 94e7 c0bc bcac e2bb
00000360: 4918 9e3d ce6a 393e 15c4 84bd b944 25bd
00000370: ef89 d1bc 9e85 d4bc e815 0f3c c1bb 853d
00000380: 4932 8ebd 99d1 d8bd 7cbc 92bd db99 a4bd
00000390: e8a9 0ebd e20f 4ebd dccf f1bc 69ac 46bd
000003a0: c380 aebb 00f7 c53d 85de 1b3c c305 12bc
000003b0: 8410 afbc 4df4 adbd 4512 cdbd fb85 703b
000003c0: be57 b43d 924a bb3d 47a0 11bc f611 ae3c
000003d0: e917 8c3c c597 72bd 3cea a3bd 23d2 d83c
000003e0: 1fc4 24bc fba6 a0bd e63e 96bc 469c bb3d
000003f0: 0884 a83d 4d13 adbd 2940 983d cb0b d6bd

bias f4 [128]
0.019358497 0.064858526 0.0013853561 -0.0021669858 -0.11821688 0.027445626 0.050025377 0.060090236
-0.05372074 0.039957795 -0.0049648457 0.02502055 -0.04247069 0.019483553 0.042953134 0.045608707
-0.08288515 0.11131744 0.045029435 -0.07821099 0.03214187 -0.121062696 0.019596769 0.030551977
0.07421675 0.039806224 -0.058933165 0.06661136 0.037790578 -0.003400686 -0.0965875 0.09527998
0.1356043 0.005703187 0.08183384 0.09288157 -0.0818624 -0.027461797 0.07020958 0.09503735
-0.07244457 0.06052409 0.006731608 0.0074169105 -0.01626169 -0.08106749 -0.086418964 -0.14198652
-0.07764309 0.043473743 0.03399825 -0.0706374 -0.05204808 0.071357846 0.098855786 -0.049308915
-0.07779783 -0.11752403 -0.014452659 -0.032440975 0.04759243 -0.11469568 0.071281984 0.012254661
0.06041658 0.03400983 0.040475152 -0.017554788 0.051950343 0.014841912 -0.026860967 -0.03841077
-0.03939442 0.011571881 0.0047341194 -0.07582718 0.05626335 -0.014358901 -0.066177316 0.07632411
0.08773907 0.044045623 -0.037301913 0.02635203 0.03200229 -0.003957327 0.007834064 -0.01965358
-0.062516466 -0.08923775 0.014454965 0.0754129 -0.024396094 -0.062499847 -0.05851887 -0.10555279
0.09960984 0.052771073 -0.059844654 -0.058896493 -0.04622944 0.008971165 -0.13605706 0.008922894
0.0022416573 -0.012106849 -0.03977517 -0.039141066 0.10702186 0.04514935 0.043537587 0.046656854
-0.0120868385 0.066239275 -0.12863418 -0.021339683 0.11150899 -0.03597362 -0.20764355 -0.027907796
0.036973063 -0.0002713595 0.017425047 0.06772696 -0.047731034 0.060193434 0.07307956 -0.038643207
00000000: b695 9e3c 8cd4 843d d694 b53a fd03 0ebb
00000010: b11b f2bd a6d5 e03c 69e7 4c3d 2e21 763d
00000020: 470a 5cbd c9aa 233d 25b0 a2bb e5f7 cc3c
00000030: bff5 2dbd f99b 9f3c a0ef 2f3d 32d0 3a3d
00000040: b1bf a9bd 66fa e33d c970 383d 152d a0bd
00000050: 32a7 033d b8ef f7bd 6789 a03c 2448 fa3c
00000060: f4fe 973d da0b 233d e763 71bd 896b 883d
00000070: 4bca 1a3d 0bde 5ebb abcf c5bd 2622 c33d
00000080: dbdb 0a3e cde1 ba3b 8098 a73d b138 be3d
00000090: 79a7 a7bd 90f7 e0bc 0aca 8f3d f1a2 c23d
000000a0: d25d 94bd 1ce8 773d d294 dc3b 8e09 f33b
000000b0: 3c37 85bc b606 a6bd 6dfc b0bd ea64 11be
000000c0: 5703 9fbd 8611 323d c041 0b3d 57aa 90bd
000000d0: 5e30 55bd 1024 923d e774 ca3d 25f8 49bd
000000e0: 7854 9fbd 70b0 f0bd d8ca 6cbc d4e0 04bd
000000f0: 48f0 423d 92e5 eabd 4afc 913d c6c7 483c
00000100: 6077 773d e44d 0b3d 46c9 253d 0fcf 8fbc
00000110: e2c9 543d 7e2b 733c 880b dcbc 9d54 1dbd
00000120: 0b5c 21bd fd97 3d3c ac20 9b3b 484b 9bbd
00000130: 6674 663d 9941 6bbc f987 87bd d14f 9c3d
00000140: 8bb0 b33d 2f69 343d e4c9 18bd 36e0 d73c
00000150: d514 033d 77ac 81bb 725a 003c 8b00 a1bc
00000160: a208 80bd 48c2 b6bd 84d4 6c3c 1472 9a3d
00000170: 51da c7bc d7ff 7fbd 7cb1 6fbd 102c d8bd
00000180: 3e00 cc3d 7b26 583d ab1f 75bd 733d 71bd
00000190: 155b 3dbd cbfb 123c 8b52 0bbe 5431 123c
000001a0: c5e8 123b ce5b 46bc 4aeb 22bd 6252 20bd
000001b0: 472e db3d 86ee 383d 7854 323d 421b 3f3d
000001c0: e007 46bc 75a8 873d aeb8 03be 8fd0 aebc
000001d0: d35e e43d 1359 13bd 83a0 54be e49e e4bc
000001e0: 1171 173d 4145 8eb9 f9be 8e3c 6fb4 8a3d
000001f0: 9e81 43bd 648d 763d bdaa 953d 5748 1ebd

weight f4 [29, 128]
-0.10365957 -0.15278706 0.13238268 -0.06785365 0.14441915 -0.035298962 0.07375213 -0.120809056
0.049032968 0.04211371 0.038755853 -0.0038800773 -0.06723854 0.13800168 0.07693963 -0.057664003
0.21711665 0.0056582335 -0.10295858 0.029913248 0.11369549 0.13745226 -0.014564097 -0.009865604
-0.0595882 0.055233225 0.047074277 -0.09126901 0.079069264 -0.12226176 -0.095981345 0.04828238
-0.086754 0.013682067 -0.15681428 -0.03320076 0.09131786 -0.07921917 -0.08788207 -0.03338607
-0.047744296 -0.11030567 -0.0019374404 0.12905523 0.051111765 0.06799165 0.11401921 -0.11498961
0.04164962 -0.0013433147 0.051250115 0.04766312 -0.031736635 0.05713513 -0.12398867 0.0065466226
0.174502 0.12655193 -0.11693984 0.10862916 0.036193375 0.061515156 -0.0017865802 0.06404295
0.036782343 0.05920128 -0.031657644 0.012591207 -0.11769304 0.11808464 -0.11077151 -0.08586115
-0.033317093 0.06307339 -0.046571374 0.02635023 0.009761653 -0.039005693 0.010329813 -0.06620188
0.023081599 0.03178498 -0.025865993 -0.12628451 -0.091704756 -0.022970563 0.050935183 -0.058380146
0.04383325 -0.001247924 -0.032098997 -0.03586571 -0.054657515 0.070504576 0.11294354 0.013031698
-0.000775475 -0.08088987 0.005744875 0.06451046 -0.03500473 0.044867247 -0.085926294 -0.065478384
-0.15222844 -0.046796452 0.025617793 -0.06826434 0.019636042 -0.08322402 -0.03952532 -0.14557365
-0.024269985 0.011599722 0.13428324 0.104348026 -0.07996253 0.020268181 0.09205781 0.024114856
0.061358932 -0.04318 -0.117808335 -0.061531667 0.042016514 0.0677705 0.040653463 0.018034615
0.027313223 0.05398064 -0.041591812 0.018461367 0.022588355 0.032562647 -0.0005390626 -0.003202345
-0.034984678 0.114837095 0.103769645 0.071974404 -0.08970911 0.064168595 -0.025911171 -0.08089847
0.03230309 -0.050103866 0.041259434 0.028653529 -0.015552889 -0.020947445 -0.099080555 -0.06833194
-0.052858025 -0.0780825 -0.06684263 -0.009898683 0.012460833 -0.082565375 -0.09558114 0.063583255
-0.050939426 -0.08727059 -0.11562767 -0.03077654 -0.049095206 0.02079496 -0.022761574 -0.096983455
-0.05762437 0.00519702 0.021577688 0.06080113 0.055208966 -0.0463058 0.036736872 0.0230895
-0.047821518 0.08937314 0.014221889 -0.005754124 -0.043901935 -0.06738176 0.065490544 0.032680877
0.035584267 -0.073467895 -0.0093290685 -0.02173887 0.03937908 -0.1303689 -0.01362547 -0.018882615
0.038148653 -0.057606414 -0.026976228 0.029379385 0.007456756 -0.015660452 -0.09445009 0.033062406
-0.105412826 0.0773582 -0.021020599 -0.03323999 -0.07326317 0.027329054 0.052001435 -0.027929034
-0.012135829 0.073563665 0.017424662 0.12552187 -0.06282931 0.06332591 0.011436299 0.066177405
0.0981821 0.0349881 -0.112788506 0.004851663 -0.041482 0.038696684 0.07714891 0.007652208
0.08004803 -0.052894667 0.08978368 -0.028341673 0.046794053 -0.0035820166 0.106701575 -0.010143115
0.08640191 -0.030669544 -0.0042575304 0.007411229 -0.019730542 -0.06173545 -0.04946945 0.059342045
0.044523463 -0.08479938 -0.07698127 -0.043055 -0.041072793 -0.02901091 0.040289983 0.09901913
-0.035448108 -0.0004118332 0.09162124 -0.0022309343 0.03909926 0.035181236 0.04958342 0.080085635
00000000: 784b d4bd 3674 1cbe 538f 073e dbf6 8abd
00000010: 9de2 133e a595 10bd 5b0b 973d bd6a f7bd
00000020: cbd6 483d 6d7f 2c3d 75be 1e3d e548 7ebb
00000030: 5cb4 89bd 5050 0d3e 8692 9d3d 1731 6cbd
00000040: d453 5e3e b468 b93b f3db d2bd a10c f53c
00000050: 2ed9 e83d 49c0 0c3e 409e 6ebc 58a3 21bc
00000060: c212 74bd 3c3c 623d f5d0 403d 3feb babd
00000070: 11ef a13d 6064 fabd de91 c4bd bfc3 453d
00000080: 15ac b1bd c02a 603c ec93 20be 85fd 07bd
00000090: dc04 bb3d a93d a2bd 84fb b3bd d5bf 08bd
000000a0: 868f 43bd f0e7 e1bd b6f1 fdba 0e27 043e
000000b0: 925a 513d 353f 8b3d e782 e93d ac7f ebbd
000000c0: cb98 2a3d 2912 b0ba a4eb 513d 673a 433d
000000d0: 46fe 01bd 8706 6a3d c6ed fdbd 0d85 d63b
000000e0: a7b0 323e d496 013e 287e efbd f778 de3d
000000f0: 813f 143d 51f7 7b3d af2b eaba f328 833d
00000100: 15a9 163d 0b7d 723d 72ab 01bd 5a4b 4e3c
00000110: 0c09 f1bd 5cd6 f13d 2cdc e2bd f8d7 afbd
00000120: 8177 08bd 9f2c 813d a0c1 3ebd 70dc d73c
00000130: 57ef 1f3c 6fc4 1fbd 603e 293c da94 87bd
00000140: 9f15 bd3c f830 023d ebe4 d3bc ba50 01be
00000150: b4cf bbbd c32c bcbc 69a1 503d 0520 6fbd
00000160: 7e8a 333d 6291 a3ba 3d7a 03bd ece7 12bd
00000170: 8fe0 5fbd b464 903d f14e e73d e782 553c
00000180: 3f49 4bba 97a9 a5bd 813f bc3b 0f1e 843d
00000190: 1f61 0fbd b8c6 373d 20fa afbd 8819 86bd
000001a0: c6e1 1bbe a3ad 3fbd 68dc d13c 2dce 8bbd
000001b0: c4db a03c 5b71 aabd 4de5 21bd 4211 15be
000001c0: d9d1 c6bc c30c 3e3c 8c81 093e 6bb4 d53d
000001d0: 65c3 a3bd 7509 a63c ce88 bc3d 858c c53c
000001e0: 8153 7b3d 83dd 30bd 7f45 f1bd a108 7cbd
000001f0: 8219 2c3d 43cb 8a3d 3f84 263d 54bd 933c
00000200: fbbf df3c ce1a 5d3d 2d5c 2abd 4b3c 973c
00000210: 370b b93c 6960 053d e14f 0dba 6fde 51bb
00000220: 184c 0fbd b62f eb3d 2e85 d43d 5167 933d
00000230: 69b9 b7bd d36a 833d aa43 d4bc 19ae a5bd
00000240: 3f50 043d b639 4dbd a7ff 283d ceba ea3c
00000250: 8bd1 7ebc fa99 abbc bfea cabd 9ef1 8bbd
00000260: a881 58bd b8e9 9fbd cae4 88bd 162e 22bc
00000270: 8628 4c3c 0918 a9bd 0bc0 c3bd f037 823d
00000280: dca5 50bd ecba b2bd 33ce ecbd 151f fcbc
00000290: 0e18 49bd 315a aa3c 7b76 babc 439f c6bd
000002a0: 8807 6cbd c34b aa3b b1c3 b03c 9b0a 793d
000002b0: cc22 623d 27ab 3dbd 6779 163d 3126 bd3c
000002c0: 7fe0 43bd 4409 b73d ed02 693c 178d bcbb
000002d0: 84d2 33bd 73ff 89bd e81f 863d 62dc 053d
000002e0: cfc0 113d 5676 96bd f3d8 18bc b715 b2bc
000002f0: f54b 213d 6d7f 05be 5d3d 5fbc b7af 9abc
00000300: c341 1c3d b4f4 6bbd 40fd dcbc 09ad f03c
00000310: ce57 f43b 594a 80bc 0c6f c1bd 726c 073d
00000320: aee2 d7bd fa6d 9e3d 6433 acbc a826 08bd
00000330: 000b 96bd 2ee1 df3c 75ff 543d 6ecb e4bc
00000340: 5bd5 46bc 8ca8 963d 2abe 8e3c ce88 003e
00000350: a7ac 80bd 04b1 813d 515f 3b3c 0588 873d
00000360: b213 c93d af4f 0f3d a9fd e6bd b3fa 9e3b
00000370: 08e9 29bd 6a80 1e3d 3f00 9e3d 60bf fa3b
00000380: 39f0 a33d 14a8 58bd 82e0 b73d cc2c e8bc
00000390: 1fab 3f3d 44c0 6abb 5b86 da3d 4f2f 26bc
000003a0: 7cf3 b03d b23e fbbc c182 8bbb e5d9 f23b
000003b0: f2a1 a1bc 50de 7cbd 7aa0 4abd a510 733d
000003c0: 3c5e 363d 4cab adbd 5ba8 9dbd 715a 30bd
000003d0: f23b 28bd 4aa8 edbc 1c07 253d 8bca ca3d
000003e0: 0932 11bd 51eb d7b9 eba3 bb3d de34 12bb
000003f0: 8c26 203d 331a 103d fc17 4b3d f003 a43d

bias f4 [29]
0.031074513 -0.009977187 -0.06556239 0.13040891 0.07467598 -0.048430778 -0.13649759 0.028352523
0.10642693 0.06805094 -0.026357658 -0.08098106 -0.05262552 0.065246046 0.046371665 -0.06601192
-0.08686002 0.102712624 -0.10561134 0.049716316 0.065672256 -0.097842604 -0.10429937 0.08705101
-0.051517054 0.06962246 -0.053877123 -0.047472615 -0.008627215
00000000: fa8f fe3c 5b77 23bc 9345 86bd ea89 053e
00000010: b8ef 983d 5a5f 46bd 06c6 0bbe 8d43 e83c
00000020: 5df6 d93d 4b5e 8b3d 04ec d7bc 66d9 a5bd
00000030: db8d 57bd b89f 853d 37f0 3d3d 4231 87bd
00000040: abe3 b1bd ff5a d23d c24a d8bd 56a3 4b3d
00000050: 2d7f 863d b461 c8bd e89a d5bd cd47 b23d
00000060: 8c03 53bd 3896 8e3d 42ae 5cbd a572 42bd
00000070: 2a59 0dbc
